tcav_data/cavs/eager_disco_16/best_model/concept_1_layer_1_cav.npy (npy, 51328 bytes, 1 tensors)

array f8 [6400]
0.03986418772394838 0.0 -0.06607996616415657 0.07837147702482916 -0.23811423784715674 0.0 0.0 -0.04846641379582459
0.0 -0.2264912296741656 0.0 -0.015001509660003779 0.0 -0.002116656997932153 -0.006558922676061369 0.0
0.005533169873037049 0.1185646867281036 0.0 0.24493169505686097 0.0 0.0 0.03599685610473224 -0.07309214984775284
0.13620242963261409 0.0 0.036698838979656444 0.012329079671097023 0.0 0.0 0.3044432890083909 -0.1770056999681595
0.0 0.41925069392915576 -0.009382730029542501 0.19725153669209677 -0.04370888402722637 -0.06956204889550655 -0.49074237444401725 0.003374961299905115
0.06757918828770813 0.17736511040409791 -0.5772635982433838 0.0 0.17749110466645368 -0.04025936665967953 -0.04007393316312449 0.039295224884638214
0.04352422982586806 -0.4172155767048233 -0.029791753352909543 -0.04716383501317557 0.02016520521552875 -0.01845754743233003 0.07794072499634577 0.0
0.31263611591101664 0.028419680488683395 2.018730399049317 0.661711332700484 0.2810708940991942 -0.20069536838045046 -0.002892334184491405 -0.11417914476851007
-0.01036877863917219 0.0 -0.08083169771135965 0.21818103961285895 -0.02993321234608619 0.0 0.054879086894076584 0.14964886309962974
0.0009528685880359754 -0.18833459070364028 -0.015019145398610097 0.08055906821473248 0.05188124323581118 0.025985779281283972 0.12520818283765434 -0.024353512959278196
0.04627175018375558 0.28909498919599114 0.0 0.580458482513397 0.0 -0.002887215945679417 0.012738848253061246 -0.10702129269214705
0.05775913823002871 0.0 0.03290840907051183 0.010343141944702585 0.0 0.04417284427173519 0.18341024789790122 -0.11922400882815995
0.0 0.18218996126229356 0.1774092132485678 -0.37004239283927776 0.014343977596868668 -0.07373635334004293 -0.837845014042569 -0.05267392984147933
0.0 0.08229969868271693 -0.06709857080469639 0.011662921964763125 -0.012440235425443615 0.1817435849694084 -0.06069615035015143 0.2391234114649094
0.0 -0.9867721934235146 0.006176957549292549 -0.01597378487767289 0.0555453853221079 -0.04940782206074003 0.08646882264785909 0.0
-0.0011958662492207528 0.012427937745024873 0.8791697694595786 0.10828191074254782 -0.056238524656689395 -0.24450785094372035 -0.04070626308059896 0.010445574097817429
-0.0926791779517215 -0.016609745389163627 0.13578037893322775 -0.016469248939499838 0.1884609403832021 0.0 0.047450989707082135 0.012929921547944302
-0.0030999477575386117 -0.1476099305642056 0.07769686883470703 0.2603070671386181 -0.006155852667818237 -0.19475998394354516 -0.135159923290141 0.08947108831751453
0.023812737261071828 0.4817584721493609 0.0 0.6738185825894013 0.0 0.13293264029873 -0.0004477363154870123 -0.1123652966266775
0.02681276023450321 -0.04220824541815994 0.09574551296767547 -0.02136426711566225 0.0 0.0 0.3806109000667632 0.573220742534107
0.0 0.11341699823917142 0.001196758152874539 -0.3338978696804059 -0.07257347059511872 -0.15280416326621657 -0.19174883857367028 -0.03354131515037026
0.0 0.013489271307631827 -0.11937886956594423 0.024901887184137408 0.09364237666524604 -0.019075221030047464 -0.01107315925623925 0.02823927793209544
0.13544188436890675 -1.1327782730687688 0.030961135036928124 0.1578060501242231 0.0 -0.2323697135337862 0.11775257013962143 -0.0020561304415915053
0.017274596820606506 0.04358729806195639 0.23784909505757343 -0.22724396319447587 0.07815330124164213 -0.3022042688473264 -0.04756935726330657 0.01854052535805491
-0.13636810899909396 -0.010402567811956715 0.23828181122026618 0.08933109194833704 0.09494049182478459 0.0 0.06614018182111779 0.055116373966582144
0.0034253354978701005 -0.23182646236702578 0.0 0.32290891889403595 0.0 0.010494588348877244 0.12349392225357105 0.10306101410214798
-0.11671642764389796 0.2992880148909799 -0.009710712866498258 0.2630925866390798 -0.006213964129415597 -0.009031351680538912 -0.049605262736475676 -0.032838287394100975
-0.1444455391465492 0.08534525368342065 0.10178741952485319 0.0 0.0 0.0 0.9014906061737508 0.6414156442554729
0.0 0.1382798553638287 0.08101648381961417 -0.4717420806555495 0.10480764440543364 0.007894114853478063 0.04531168471821576 -0.014737219691760249
0.01988603570554885 -0.11233683983916787 -0.0038281756767658075 0.09465570538893797 0.19486629438668923 0.14279805708311616 -0.09881986213241636 0.06697205274514746
0.0 -0.9460663306543913 0.017490563156752514 0.021344225860064382 0.0 -0.036795861682258 -0.049505518128809205 0.028164153982159944
-0.05324235313587532 0.0 0.1427084583787202 -0.04741323909199085 0.0 -0.08252003506393847 0.12583474004328365 -0.019256395697321398
00000000: 2ea7 1c2d 1469 a43f 0000 0000 0000 0000
00000010: e888 98dd 9dea b0bf 80c7 c232 2710 b43f
00000020: 06fc 2100 877a cebf 0000 0000 0000 0000
00000030: 0000 0000 0000 0000 7c39 6afc 96d0 a8bf
00000040: 0000 0000 0000 0000 cd03 2424 aafd ccbf
00000050: 0000 0000 0000 0000 f5f1 0a8b 1cb9 8ebf
00000060: 0000 0000 0000 0000 cbac a792 f356 61bf
00000070: e135 4066 87dd 7abf 0000 0000 0000 0000
00000080: 4fd3 5dfa f2a9 763f 2f2b f55b 415a be3f
00000090: 0000 0000 0000 0000 b8f3 02fa eb59 cf3f
000000a0: 0000 0000 0000 0000 0000 0000 0000 0000
000000b0: af10 750f 2e6e a23f 02c0 30c9 2ab6 b2bf
000000c0: 6833 74ca 146f c13f 0000 0000 0000 0000
000000d0: d305 70b2 30ca a23f db2e d10f fd3f 893f
000000e0: 0000 0000 0000 0000 0000 0000 0000 0000
000000f0: 16c6 71b4 ff7b d33f 88cf 486e 1fa8 c6bf
00000100: 0000 0000 0000 0000 df10 d0dc 00d5 da3f
00000110: c91e feb4 4037 83bf 86d2 96d1 893f c93f
00000120: 9d18 e2c6 0261 a6bf 3888 0c85 d1ce b1bf
00000130: 72e6 3fb4 5268 dfbf 0b45 118d cea5 6b3f
00000140: afff 95a3 de4c b13f 328a 5162 e6b3 c63f
00000150: 3e0d 7482 f178 e2bf 0000 0000 0000 0000
00000160: 54c9 ef4c 07b8 c63f 1d6e 522e e09c a4bf
00000170: b425 b710 9284 a4bf 1077 89f3 801e a43f
00000180: e712 5fcf ce48 a63f 430e 55f6 a8b3 dabf
00000190: 496f 5db9 ba81 9ebf a2fd deb1 db25 a8bf
000001a0: 37da ab03 30a6 943f b24b 580a 89e6 92bf
000001b0: 12c6 e260 ecf3 b33f 0000 0000 0000 0000
000001c0: d7b8 58e9 3a02 d43f c6f1 0b79 0c1a 9d3f
000001d0: dedc 9a1f 5c26 0040 bcea aa3e bd2c e53f
000001e0: 7ddd 80c6 10fd d13f e98b d3c5 62b0 c9bf
000001f0: e164 6817 aab1 67bf fe7e aa2c d83a bdbf
00000200: 84d7 3ce9 393c 85bf 0000 0000 0000 0000
00000210: be83 26da 62b1 b4bf 184c df36 5bed cb3f
00000220: edd6 5ce0 cfa6 9ebf 0000 0000 0000 0000
00000230: 8c88 e396 1c19 ac3f 37c0 72a6 b127 c33f
00000240: f5de 24b6 3d39 4f3f 0a8b e30d 591b c8bf
00000250: de3d 6892 5bc2 8ebf f9e5 60e3 849f b43f
00000260: a97f f2a5 2d90 aa3f 9d5e b220 049c 9a3f
00000270: 285a 3d5d d206 c03f f5ad cf96 20f0 98bf
00000280: ca2b 894b eeb0 a73f 3d31 0245 8880 d23f
00000290: 0000 0000 0000 0000 2596 e2aa 1d93 e23f
000002a0: 0000 0000 0000 0000 f497 0542 eea6 67bf
000002b0: f6b7 1545 d316 8a3f 64a2 1658 bf65 bbbf
000002c0: c979 7c13 9b92 ad3f 0000 0000 0000 0000
000002d0: 1e46 71f9 5ed9 a03f 5b81 1f03 c92e 853f
000002e0: 0000 0000 0000 0000 326c 09b3 d29d a63f
000002f0: b282 3cac fc79 c73f 5ea1 d0f2 7685 bebf
00000300: 0000 0000 0000 0000 b3f9 a32a 0052 c73f
00000310: 36b2 7458 58b5 c63f c835 d849 c6ae d7bf
00000320: 3d86 6215 6060 8d3f 492d 1fba 62e0 b2bf
00000330: 6bbe cd58 a0cf eabf 3fba 0acc 13f8 aabf
00000340: 0000 0000 0000 0000 c11b 50d2 9711 b53f
00000350: 38ea 3637 5f2d b1bf 31cf 50e3 bae2 873f
00000360: 8e5e 7422 447a 89bf aec7 d9b0 5f43 c73f
00000370: b376 7ed9 9013 afbf fe90 f98f 989b ce3f
00000380: 0000 0000 0000 0000 d765 6b47 a393 efbf
00000390: 4c9d 9b6a 024d 793f 0660 928e 6e5b 90bf
000003a0: 78e9 cdda 7170 ac3f 12be d567 fb4b a9bf
000003b0: fb6b 651d d222 b63f 0000 0000 0000 0000
000003c0: 241e 929b d397 53bf df72 5f91 d173 893f
000003d0: 76be eea3 2822 ec3f fb3b 6301 5db8 bb3f
000003e0: 9afe 59c0 4bcb acbf 1e92 b583 084c cfbf
000003f0: dbda 5889 73d7 a4bf bdc4 1a39 7d64 853f
00000400: 8da3 5296 d2b9 b7bf 0823 f724 2502 91bf
00000410: 2a75 7a5f 4061 c13f dade 5696 50dd 90bf
00000420: 1277 c2f3 7c1f c83f 0000 0000 0000 0000
00000430: 0bd5 e801 7f4b a83f da91 81b1 007b 8a3f
00000440: cb2d 9dc7 0f65 69bf a946 2bd8 e1e4 c2bf
00000450: 0e8c a526 f1e3 b33f 6dcb 11f9 dea8 d03f
00000460: e345 321e e136 79bf 8eb2 cd28 e5ed c8bf
00000470: 3f69 219d eb4c c1bf 73e1 42c6 93e7 b63f
00000480: a7e4 0ebf 5d62 983f a5f4 9c7c 21d5 de3f
00000490: 0000 0000 0000 0000 df12 f5fc eb8f e53f
000004a0: 0000 0000 0000 0000 85b5 53cf ef03 c13f
000004b0: c238 0ed5 c457 3dbf 0188 37da f8c3 bcbf
000004c0: c76c 4ae1 cd74 9b3f 7294 62b3 519c a5bf
000004d0: 4456 ef26 c782 b83f 1055 42b2 83e0 95bf
000004e0: 0000 0000 0000 0000 0000 0000 0000 0000
000004f0: 7f6c 12d2 ed5b d83f 9754 d206 d357 e23f
00000500: 0000 0000 0000 0000 4a6b 3f7a e508 bd3f
00000510: 8229 2e48 919b 533f 7acf 9e2b 955e d5bf
00000520: 8564 c3ca 2c94 b2bf cbe4 f539 168f c3bf
00000530: 9725 5cd7 398b c8bf 7c76 45c7 532c a1bf
00000540: 0000 0000 0000 0000 1cbb e758 43a0 8b3f
00000550: 9882 9e14 9d8f bebf d719 425c e17f 993f
00000560: 9b04 4c61 f2f8 b73f e7bc f369 7488 93bf
00000570: 9f9a f346 86ad 86bf 3959 b9dc c1ea 9c3f
00000580: b2c0 efdf 2856 c13f 0d32 471c dc1f f2bf
00000590: 47fb b899 46b4 9f3f 287e 3218 fd32 c43f
000005a0: 0000 0000 0000 0000 23b0 1a70 4abe cdbf
000005b0: d405 c54d 0825 be3f 4621 18a0 04d8 60bf
000005c0: c198 9591 6eb0 913f 31eb 6407 1351 a63f
000005d0: 8be6 53d2 d671 ce3f 221d 1187 5416 cdbf
000005e0: 1a44 e8d0 da01 b43f 814b da92 5057 d3bf
000005f0: 2fac 79c3 025b a8bf 5507 4198 49fc 923f
00000600: 162a 2f9c 8274 c1bf 4acc 5f04 f14d 85bf
00000610: ad1a 36b5 0480 ce3f a31f 6f06 67de b63f
00000620: 781f 7423 054e b83f 0000 0000 0000 0000
00000630: af89 df1d 90ee b03f 0837 529f 3638 ac3f
00000640: 6f25 1efe 720f 6c3f 2d5c 1b51 7dac cdbf
00000650: 0000 0000 0000 0000 7824 8f2b 8aaa d43f
00000660: 0000 0000 0000 0000 2781 f2cd 2f7e 853f
00000670: 7977 5535 4c9d bf3f b1b2 0fe5 3462 ba3f
00000680: 25f1 a2b7 20e1 bdbf 42a8 02eb 8827 d33f
00000690: b8ab 75d1 35e3 83bf 4fd5 db49 82d6 d03f
000006a0: b601 6e4b d073 79bf 794b da80 077f 82bf
000006b0: ed46 536a dc65 a9bf cd20 d414 2ed0 a0bf
000006c0: 8b00 5801 317d c2bf db69 70c1 2fd9 b53f
000006d0: d3e3 0086 bd0e ba3f 0000 0000 0000 0000
000006e0: 0000 0000 0000 0000 0000 0000 0000 0000
000006f0: f55b e5d3 02d9 ec3f 750a e719 7a86 e43f
00000700: 0000 0000 0000 0000 48db 3d80 27b3 c13f
00000710: 2331 710c 7fbd b43f 4d01 24b2 0531 debf
00000720: 2696 177d acd4 ba3f da2f 0329 ca2a 803f
00000730: bd98 fbd7 1733 a73f 4c70 e124 8c2e 8ebf
00000740: 8b7a 0244 015d 943f 78c6 3e6d 1bc2 bcbf
00000750: 93be b82a 445c 6fbf 087a 0637 5b3b b83f
00000760: 98e4 bdf4 60f1 c83f 865a 8dec 3447 c23f
00000770: 22d0 0d2c 424c b9bf 3551 4998 1425 b13f
00000780: 0000 0000 0000 0000 123c c0e5 2c46 eebf
00000790: b0cc fcd2 0be9 913f 6a12 1cc0 42db 953f
000007a0: 0000 0000 0000 0000 2e5c 1b3d e8d6 a2bf
000007b0: 0f67 ab8a c958 a9bf 336f 1761 10d7 9c3f
000007c0: 0e1a f6ea 9442 abbf 0000 0000 0000 0000
000007d0: f2b1 cc50 4544 c23f c755 984e 8c46 a8bf
000007e0: 0000 0000 0000 0000 9948 dd73 0820 b5bf
000007f0: 5ce1 974e 5a1b c03f de0a 09d7 f2b7 93bf
