tcav_data/cavs/eager_disco_16/best_model/concept_2_layer_1_cav.npy (npy, 51328 bytes, 1 tensors)

array f8 [6400]
0	0xbf8fff76383d61fe	-0.015623973456670544
1	0x0000000000000000	0.0
2	0x3f952d314a62ee4d	0.020680208363712805
3	0x3fa0f5b09fdbdd84	0.033124465478915815
4	0xbfc933c402806fba	-0.19689226267007404
5	0x0000000000000000	0.0
6	0x0000000000000000	0.0
7	0x3fb1a9839c34ad31	0.06899282992951751
8	0x0000000000000000	0.0
9	0x3fc91b3c464f40ae	0.1961436599071979
10	0x0000000000000000	0.0
11	0xbf8f1fa4bf1ec0fe	-0.015197074015163011
12	0x3f805dad1df6803b	0.007991173245329821
13	0x0000000000000000	0.0
14	0x3fad2d8e211b759b	0.05698818353787801
15	0xbf9055ec295911b5	-0.015952768348385955
16	0xbfb16058e1ad1e2c	-0.06787639150308483
17	0x3f9937899536f381	0.02462592099412886
18	0x0000000000000000	0.0
19	0xbfa0fbd07deaaba0	-0.033171191569031366
20	0x0000000000000000	0.0
21	0xbf855cdedd6c9b3e	-0.010431042797404918
22	0xbf8c55dfecaf5fa5	-0.013835668001703836
23	0xbfa492d91ac655f9	-0.04018286182251169
24	0x3fc636c97e6096ea	0.1735469691349672
25	0xbf5b496dd1076515	-0.001665456049627705
26	0x3fb098e8048e4e1c	0.06483316527583621
27	0xbf81f1d9e1829529	-0.008762075609704727
28	0x0000000000000000	0.0
29	0x0000000000000000	0.0
30	0x3fd9afd2a1b04428	0.40135637082954867
31	0xbfc56813a199f486	-0.16723866835301154
32	0x0000000000000000	0.0
33	0x3fbf3b67910a9c4a	0.12200019160319289
34	0xbf99440038ef6b22	-0.024673465228128973
35	0x3fc102899893c837	0.13288993787824818
36	0xbf882182e93d0a83	-0.011782667868492474
37	0xbf84a67d481c4034	-0.010083178294309027
38	0xbfe5c53112cede6b	-0.6803212516160334
39	0xbf6dd1898c4b55ce	-0.003639954231725118
40	0x0000000000000000	0.0
41	0x3fcbb777bb3ddf5d	0.21653648989353771
42	0xbfe58efbe152c426	-0.673704090199071
43	0x0000000000000000	0.0
44	0x3fb4f89219e855d8	0.08191788799771105
45	0xbf8dbc6fefbdc612	-0.014519571784805261
46	0xbfa399641ddae961	-0.03827965607111384
47	0xbf9cc93ee2d127ad	-0.028111441224872347
48	0xbf53ea08efff877a	-0.0012154662399485859
49	0xbfe0f489eb49e339	-0.5298509211998869
50	0x3fa0afaa76118429	0.0325902241827481
51	0x3f7e2a70f334454b	0.007364693842889135
52	0x3fab0f70e4c6c405	0.052852180411157725
53	0x3f9fd95af40a120e	0.031102582116107107
54	0x3fc1b5b1906c6a57	0.1383573489373073
55	0x0000000000000000	0.0
56	0xbf5a7881f077043e	-0.0016156453074105538
57	0xbf91fc591b2d9150	-0.017564193996251476
58	0x3ffb279631bb058c	1.697164720783209
59	0x3fe77523c674a9a7	0.7330492855156095
60	0xbfb2484c054ea9dc	-0.0714156640012002
61	0xbfd680607a6dfd47	-0.35158550220508683
62	0xbf9ab9175dda038e	-0.026096692183731167
63	0xbf87c14db0f5b7d7	-0.011599165881047853
64	0xbfb00a73a530b8b3	-0.0626594808861423
65	0x0000000000000000	0.0
66	0xbfb65218dcfd8672	-0.08719020266792102
67	0x3f9215fc53802154	0.017661993595568262
68	0xbf98408dcb240b5c	-0.02368375351307904
69	0x0000000000000000	0.0
70	0x3f94b39af2eebff3	0.02021638972991009
71	0x3fa69e8eb2bc43b2	0.04417844707325659
72	0x0000000000000000	0.0
73	0xbfc3b3c605c59552	-0.1539237526114144
74	0xbf91aff3e927e0de	-0.01727276907510677
75	0x3fc3ae46ab3a0272	0.15375598297761744
76	0x0000000000000000	0.0
77	0xbfb757f0b7aa9e0d	-0.09118561252636699
78	0x3f9d201057eff474	0.028442626349705027
79	0xbf91235035159420	-0.01673627208710482
80	0xbf4d940fbadfc426	-0.0009026600653198088
81	0xbf98b95d0909810e	-0.024144605328161588
82	0x0000000000000000	0.0
83	0xbfa7a5c0bc31f955	-0.046186469052360714
84	0xbf88c872b699a00d	-0.012101074407112855
85	0x3f64d74f6cd2ee09	0.0025440741797788696
86	0x3fc1aceea9bd282c	0.13808997428924508
87	0xbfa1a928029a1752	-0.03449368507157992
88	0x3f8fc501114e681a	0.015512474384923581
89	0x0000000000000000	0.0
90	0x3fba4a093edd200a	0.10269220146904004
91	0x0000000000000000	0.0
92	0x0000000000000000	0.0
93	0x0000000000000000	0.0
94	0xbfb453892ea7f519	-0.07939965619148771
95	0xbfc0de6d1afca32e	-0.1317879087230493
96	0x0000000000000000	0.0
97	0x3fc81adc76df730f	0.18831973842943525
98	0xbf91df8b7579600a	-0.01745431808953416
99	0x3fcc55788fdc8c03	0.2213583662461077
100	0xbfb70c5d4c70281b	-0.09003241649784892
101	0x3fb3377bdbf39eb7	0.07506536598122691
102	0xbfee6b1c18fce1f3	-0.9505749214213765
103	0xbf8c3452748b3639	-0.013771671468386081
104	0x3fa7176a04d95a0f	0.045100510684893284
105	0x3fb3e266fba0e9c9	0.07767337458873337
106	0xbfaa099a96e90a94	-0.05085452167670215
107	0x0000000000000000	0.0
108	0x3fb26c55fffb8a62	0.07196557521414484
109	0xbfa998a86ec102d0	-0.04999281265236777
110	0xbfb21c74bf38c328	-0.07074670475482192
111	0x3fc05b36c6c9af06	0.12778362947880612
112	0x3fb8c4e6bfd6b8b2	0.09675447639048931
113	0xbff3d6bf11d6543e	-1.2399283119932671
114	0x3f4cb7205152a0f5	0.000876322536574241
115	0x3f8920b7dab74eaf	0.01226943622797391
116	0x0000000000000000	0.0
117	0x3fbaff3d7dbd9672	0.10545715637052824
118	0x3fcb340d7b08d402	0.21252602107566082
119	0xbf01d527a3885ff4	-3.401305406586222e-05
120	0x3fa7cd5bd94b78d7	0.04648863818668907
121	0x3faadf1b4760c596	0.052483417952667796
122	0x3ff9f0f08510114b	1.6213231275333608
123	0x3fe006bb9ad28576	0.5008218788026813
124	0xbf93a2f972f0e7e5	-0.019176385536617508
125	0xbfd056c431004671	-0.2552957991148111
126	0xbfa6053936977e57	-0.043008602060351
127	0x3f8398adf7ca0628	0.009568556904244366
128	0xbf9d4fd286fa8b13	-0.028624810684628587
129	0xbf939d3e6cf0977b	-0.019154525183828746
130	0xbfb714d857bb3b9a	-0.09016182081107474
131	0x3f973c08ee7ab567	0.022689952426551054
132	0x3fd50bed02e6800b	0.32885289462319695
133	0x0000000000000000	0.0
134	0x3f9595b35a196a4e	0.021078874944900065
135	0x3fcf5f6f26eacd28	0.2450999202752453
136	0x3f75d9336f75c747	0.005334092063422897
137	0xbfca6b817be2255c	-0.20640581654542245
138	0xbf9a147757833745	-0.025468697277396108
139	0xbfa14abee3c4c4fe	-0.033773389152324626
140	0x3fbbe63dcfe87e62	0.10898195577510131
141	0xbf408aafa2521ef1	-0.0005048139179430739
142	0x3fb830659d063ad9	0.0944884785041994
143	0x3faa5d1ef16c9390	0.05149170586654528
144	0x3f79d9580ea9a0bb	0.006310790990575461
145	0x3fd7c5efb0faee66	0.37145607264731095
146	0x0000000000000000	0.0
147	0xbfb271dde012fcbc	-0.07204996796189084
148	0xbf61e79acb68fd7c	-0.0021856330234012993
149	0x3f7471930b955140	0.004991125483986558
150	0x3f87591726a89e38	0.011400395266789251
151	0xbfc01d5bbfadcc34	-0.12589594706841611
152	0xbfae9fced15048de	-0.0598129873761921
153	0x3f6dac63b7fa610f	0.003622240794197158
154	0x3fb5ff61099e04a0	0.0859280251006731
155	0xbf87f77ac14d44f7	-0.011702498458961303
156	0x0000000000000000	0.0
157	0x3f805a75015bd65c	0.007985033134427492
158	0xbfc4f8c6cfc88161	-0.1638420595709347
159	0xbf6557f11b82edf1	-0.002605410492916731
160	0x0000000000000000	0.0
161	0x3fce75948c7efa13	0.2379632650390283
162	0xbf861160b84f3927	-0.010775333046606562
163	0xbfb69c32c60b0f2a	-0.08832089743651453
164	0xbfb9d1fb1611b3e5	-0.10086030281827581
165	0xbfd027c4b84dc5f8	-0.2524272727815453
166	0xbfea49a77003a8f7	-0.8214909732608068
167	0x3f999bfa0a1e6335	0.02500906645545627
168	0x0000000000000000	0.0
169	0x3f82c18dfc051e2c	0.009158238652744087
170	0xbfc2f8f09d20f341	-0.14822204277325038
171	0xbfbb734a74868d0c	-0.10722794861662893
172	0x3fcd2a4be66fafb9	0.2278532862832188
173	0xbfa8fee59208eb45	-0.04881970794345717
174	0xbfab623fe09098f4	-0.05348395935316033
175	0x3fc605b2397ac3e3	0.17204883391016698
176	0x3fa3a55308e3692d	0.03837069972515148
177	0xbff3da5736345000	-1.2408058278424505
178	0x3fb602f587a9a812	0.08598265230253357
179	0xbfc062672be98db4	-0.12800302166134048
180	0x0000000000000000	0.0
181	0xbfb8f6b209622bd5	-0.09751427392090702
182	0x3f93b09840b60d3d	0.01922834296193553
183	0xbfa225f280c7c1b8	-0.0354457647516741
184	0x3fb838bc48613f68	0.09461571471297037
185	0x3f9b9673474b49dd	0.026941109873243597
186	0x3ffc030d92d59a46	1.7507453666418242
187	0x3fb6357b92b49ddc	0.08675358134916372
188	0x0000000000000000	0.0
189	0xbfcab865dd6d0378	-0.20875237762268362
190	0xbfb29f80f8a439d2	-0.07274633474683093
191	0xbf5902d9b1892188	-0.001526558486277892
192	0xbfb4d65185979fc5	-0.08139523993997873
193	0xbfad42dfc86a09ab	-0.057150834288239714
194	0xbfaa4796b83c208e	-0.05132742880783879
195	0xbf7800d496a5a03a	-0.0058601669537453
196	0x3fe2b730052aa150	0.5848617649944945
197	0x0000000000000000	0.0
198	0x3f5477260af17e2a	0.001249110365982529
199	0x3fc4b4cf617648a0	0.16176788576973866
200	0x3f712dbd25d588d2	0.004194010599663582
201	0xbfbf429ed46cdd82	-0.12211029707110835
202	0x0000000000000000	0.0
203	0xbfdf3e663c5cd059	-0.4881835545995777
204	0xbf871cb7e644d9f8	-0.011285244669676495
205	0xbfc368c221a0fdd8	-0.1516344703868373
206	0x3f982cb5debdd276	0.02360805675512486
207	0x3fafd1184ad231a6	0.06214214242308751
208	0xbfb689b68cba913d	-0.08803883491288374
209	0x3fc6e367cb1f0f86	0.17881486337693903
210	0xbf9b943711d09ac5	-0.026932583296139585
211	0x3f9c2c45bc830ff2	0.02751263583265024
212	0x3f70ef5414d8aaf8	0.00413449138936061
213	0x3fb6611bf5a8560c	0.08741926906107994
214	0x3fb277bf5a495f0f	0.07213970140707836
215	0xbfb6572d9fa24896	-0.08726773402512075
216	0xbfbbd9cd84f15662	-0.10879215713188153
217	0xbf9217c2368d30b4	-0.017668757037697616
218	0x3f9d5afb0e6087ec	0.028667376282221754
219	0xbfa07e1c36610b68	-0.03221214450652249
220	0x0000000000000000	0.0
221	0xbf6518a64e6d6946	-0.0025752304240259953
222	0x3f515abbaeb6aed7	0.0010592301212949873
223	0x3fdd8b4062f3af11	0.4616242376639415
224	0x0000000000000000	0.0
225	0x3fb7069f56b290b0	0.08994480005873373
226	0xbf81b0b1f937bc2a	-0.008637800615330777
227	0x3fb42ca508c462fe	0.07880622352639574
228	0xbfaa7bf4c358c0e3	-0.051726960035354506
229	0x3fb81fbb88e1bea6	0.09423420039979166
230	0xbfbcf0ba941e0060	-0.11304823032514966
231	0xbfa26faef42dd955	-0.036008326823252425
232	0xbf96d16b4d115d1c	-0.022283245638701307
233	0x3fbb805cc0ba28c4	0.10742740350011376
234	0xbfb4c8e5f9a12f7f	-0.08119046539758122
235	0xbfb03c3f00af3e35	-0.06341928259575343
236	0x3fc60555f727e4fd	0.17203783577114243
237	0x3fa7b6fc8f41a5c8	0.046317951667173285
238	0xbfc31f6f9a9face4	-0.14939684915530116
239	0xbfc23c36b82bb66a	-0.14246257775032528
240	0x0000000000000000	0.0
241	0xbff11b8b430d345e	-1.069224607391582
242	0x3fb7f7d7001b2255	0.09362548592174254
243	0x3fb346d97bdf0c5a	0.07529982828332163
244	0x0000000000000000	0.0
245	0xbfd3b438e023acc7	-0.307874888311471
246	0xbfa264628a1558ec	-0.03592212615574106
247	0xbf937c1778a57dee	-0.019028059710192773
248	0x3fb2a962220596d5	0.07289708452807571
249	0xbf8e3ae07942c718	-0.014760736179912068
250	0x400487183a0eed07	2.5659641776852626
251	0x3fe2de6dfb55253e	0.5896520527686915
252	0xbf5818ba089b0060	-0.0014707390532038497
253	0xbfc740624e303d4f	-0.1816523439197035
254	0xbfbb6b93d87cd10f	-0.10711025271740858
255	0xbf99efa267cfb014	-0.025328195177209592
