tcav_data/cavs/eager_disco_16/best_model/concept_2_layer_0_cav.npy (npy, 25728 bytes, 1 tensors)

array f8 [3200]
00000000: 0000 0000 0000 0000 2555 c41c 51d0 b5bf
00000010: 5621 e9ef f194 543f 4c7f ff8f d5cc a0bf
00000020: 0000 0000 0000 0000 26f3 768f 9871 a03f
00000030: 4c65 978b 879d b1bf 8c18 1ce2 d17e 72bf
00000040: 0d4d b579 eaa6 e13f 0000 0000 0000 0000
00000050: 1aaa dba6 f6ba ae3f 7338 6150 250f c33f
00000060: 0000 0000 0000 0000 3f0d 8584 4c95 e8bf
00000070: 0000 0000 0000 0000 5fab 8e8f a10d d3bf
00000080: c637 bf90 77ba b43f 1fc6 30ba 83da a73f
00000090: aca8 b6f7 43af e03f 3dce a48d fb29 b33f
000000a0: e314 92f4 413f cc3f c993 951b 9b85 a6bf
000000b0: 10dd e814 03ac ba3f c3e1 7f3c e64a dc3f
000000c0: 0000 0000 0000 0000 b055 b679 e899 d2bf
000000d0: 0000 0000 0000 0000 840f 2377 a3b0 bcbf
000000e0: 0e71 1533 3f93 b23f 0000 0000 0000 0000
000000f0: 5e8c 091e f40f ce3f 0000 0000 0000 0000
00000100: cc61 eb6d b2df 513f bfdb e65c 8fde b5bf
00000110: 3e23 0c09 eb3c b33f 9a6d 9a5c e4af 91bf
00000120: 6801 5ac1 de1d d43f 0848 978a 6c48 d4bf
00000130: 98c6 a3b6 5dcd c5bf 0000 0000 0000 0000
00000140: 754f 27b8 ed06 c33f 0000 0000 0000 0000
00000150: 8698 6635 08d3 ab3f fd7b ba25 98bd c83f
00000160: 3e23 8866 d980 9b3f 497e 6d39 233c e5bf
00000170: fc56 a88b b0ff c33f 6a0c 54f5 deda b2bf
00000180: 60bf 012c 8ec9 c33f ceef cab6 9cb2 d03f
00000190: 180d e1db 27b8 da3f 50c9 6b76 a66c 97bf
000001a0: dcaf 2936 bc8f 82bf 5f7c ee9c 0f5b dfbf
000001b0: d8f5 bc45 00b7 cb3f fabe e251 fc6a e03f
000001c0: 1cf5 7cfe e38d b03f 500e 5478 85b8 cabf
000001d0: 36b5 2b86 9edd dc3f e478 a0dd ecc9 d2bf
000001e0: 1397 723c 6c00 d7bf 0000 0000 0000 0000
000001f0: a251 5030 0077 b03f 2445 bed7 1a6b 523f
00000200: 9cff 9b2a 0543 93bf 6a82 9b19 056c bdbf
00000210: 8eac d1bf 9c53 e2bf 49c3 01ac f0c8 953f
00000220: 5503 ee0f 726f dc3f 2884 0f60 e5e9 a4bf
00000230: 6053 62fd 85ba cdbf b36e 2154 cb8f a83f
00000240: 062e 6b1d 8f5c d03f 2a35 230f e0a1 bf3f
00000250: 2e1f 2564 dc57 c4bf 6928 96ab 1170 d93f
00000260: 28a0 b4fd 1d34 a03f 84b8 6219 562c e0bf
00000270: f581 70a8 424d af3f 7df4 c542 d904 acbf
00000280: b7ba 5779 545a 98bf a149 2850 d10a c1bf
00000290: 1d8f e2d2 6ac9 d73f e81a 999c d060 c6bf
000002a0: 2887 d2f9 e7cf bebf 8fc5 d5ec 22b5 dcbf
000002b0: 1e4b 918b 87ce c33f cafc cb09 c14a e53f
000002c0: 0000 0000 0000 0000 0d23 676a 8442 d1bf
000002d0: 80e0 9527 bbe2 eb3f fcba fc48 db46 e4bf
000002e0: 50fb 0e7d 6115 d4bf 0000 0000 0000 0000
000002f0: 0c14 9920 c947 c23f b0f7 14ff 0a60 b13f
00000300: 62cd b70d 0fb1 82bf 36d2 0f75 ce1e c6bf
00000310: f2de 451e 3a94 9fbf 6aa0 a8ce 0926 a4bf
00000320: c0df aed8 77c4 c63f 12a8 4a26 b15f d2bf
00000330: aa0e 3e95 bf82 c8bf 7c6a e573 9fb6 9bbf
00000340: 7e5c 66b8 5497 e03f fe39 cf06 f203 54bf
00000350: a13e b63d ad60 a8bf d22f c79a fd0e d53f
00000360: 21cf fa48 bae6 80bf 1cbc 1321 32b1 e7bf
00000370: 6189 2c1e 0456 babf 6a89 75e1 b3fd d1bf
00000380: f54f c96d 46d1 b63f c21f 32ea fbbd 993f
00000390: e123 027a 8526 e43f d5a7 8902 421c d0bf
000003a0: db3b 7304 3f68 c03f 8d7a 3f77 0863 dabf
000003b0: 032e 5f34 bd35 d53f 4cc0 f10b 80d3 e23f
000003c0: fc6a 64a4 ea52 9bbf 44b7 fa85 9c8b d1bf
000003d0: d61c 4d52 cf5f d63f 5094 fb6d 4d0e e0bf
000003e0: aa94 bb13 b77c bbbf 0000 0000 0000 0000
000003f0: 7a4b 714e fae1 cd3f 0a2c 9449 3860 b1bf
00000400: ee3d ed64 3386 a53f dc63 f4ba eaff b5bf
00000410: 3082 81f0 c660 b3bf 7096 f4d1 9a75 a13f
00000420: a47a 5a07 5470 d83f 35f7 32da 5ef0 d0bf
00000430: acca 48cf b30d b0bf bd29 8b99 1af3 803f
00000440: 99de 76d6 291b c73f 64bb 4aa5 5da3 86bf
00000450: 7013 7484 fd3d cfbf 6350 6548 d1dc e63f
00000460: 7040 faa1 4b6d 943f 4026 9669 f02d e8bf
00000470: 3257 b422 9b80 ac3f fdac 8551 4ae6 afbf
00000480: 17d4 16f1 c085 b73f 4dfe 1477 3025 d03f
00000490: be52 49a0 2bee c73f 695b a9c5 a3f5 c2bf
000004a0: 1781 bbd5 c5f0 b83f 125d bea0 ef4f d6bf
000004b0: 3726 1566 468b d53f e6db c18d b869 e13f
000004c0: 0627 654d ff44 793f 7fe8 b187 0616 d1bf
000004d0: 0e42 9858 83b0 e03f 86ea 002a 04b2 d1bf
000004e0: e13a c664 d20a c5bf 0000 0000 0000 0000
000004f0: 5f7b b58d d3cd 963f a483 1ee9 d36c 92bf
00000500: e0a4 0056 3ff5 8bbf 94d5 d881 7619 b8bf
00000510: 763a 142d 7bbe d3bf bd14 52cb 9a0d 96bf
00000520: 4886 3cac 350a d83f 6d8b 73df d0a9 bfbf
00000530: 2728 d20f ce0b cbbf 7d2c 592d a95a b63f
00000540: a0e4 9fe8 b66f d53f 72bd abec f926 913f
00000550: b2a9 006b 9b70 c03f 44bf d696 a038 df3f
00000560: f062 622b c8a0 bc3f 92b8 2021 c7c9 eebf
00000570: 9296 1571 7164 a13f 9798 bf22 9481 a83f
00000580: 36fc bf30 5328 b0bf a001 218f 5d20 bbbf
00000590: 37e1 0927 12e4 df3f 6573 b564 2ffa c9bf
000005a0: a1d2 d4d5 b713 c13f a787 07f8 c9c3 debf
000005b0: 03c1 7d58 172b d13f 0687 f336 c9e3 ec3f
000005c0: 7194 423e 1d4e 91bf a4be cd89 03e3 c5bf
000005d0: adcd e8a6 fc2c e73f 7e6c 4021 185f c5bf
000005e0: cbaf 0e2e 6703 a23f 0000 0000 0000 0000
000005f0: 4d8b c85b d379 cf3f e971 c21d 9482 563f
00000600: 1348 c535 08b6 80bf 6b40 ead7 2ecb c0bf
00000610: 31d5 54d5 96a8 d9bf e07c a14c 5c7e aa3f
00000620: be04 1b94 f847 d73f 7700 75ea 881f b7bf
00000630: cf5d b641 e3da c2bf fb8d 0a96 df3b ac3f
00000640: 01a3 7976 4a39 c83f 3721 8331 c514 b43f
00000650: afa4 8971 5e8f a63f 2360 bd4c 5ac7 d23f
00000660: d464 1992 fa1e 65bf 6bb9 b918 62a8 e3bf
00000670: d40c 812d 0087 ad3f 8a5d cc7d 9d6a cdbf
00000680: 858f 464a 965e a93f d73e f3f7 93fc db3f
00000690: e353 c37b 7201 e23f cef5 8c59 a1c3 c7bf
000006a0: 0000 0000 0000 0000 800a dc8d 9255 d1bf
000006b0: 2b15 8165 1d8e cdbf 73d6 46c4 c9d9 e73f
000006c0: a239 20e6 b957 a3bf c271 a202 2849 d2bf
000006d0: d9e0 a473 0f15 e33f d9e4 2f9b bf59 c9bf
000006e0: 32a2 7474 b69f cbbf 0000 0000 0000 0000
000006f0: 241b c42f f0f0 c43f a4f8 79f8 0e9e 883f
00000700: 8112 5705 6d66 84bf a641 35df c14c b7bf
00000710: 3f29 61db 8724 cdbf 713b 453f d576 843f
00000720: 96c3 6d9e cc75 dc3f a9b1 93a7 157e c9bf
00000730: adf4 7c5b f1a1 c3bf f8e6 512d dba2 b2bf
00000740: 9b28 60e5 3e1d ba3f a101 29fa d8bb c03f
00000750: 6159 fe57 f3e7 aebf 8261 978c d43a d33f
00000760: d00c fe28 c5c9 80bf b0ec 2e08 18e6 e6bf
00000770: f57c f0c2 29da b3bf b25e a9e7 d51b d4bf
00000780: 5131 59be eca0 babf bd8c 76f2 5546 9cbf
00000790: 5800 9689 15d0 d03f 83d4 fe8c 8d95 aebf
000007a0: 0b7b 8d22 a4d3 c0bf 39d2 2a6c 1b56 e6bf
000007b0: 8289 0798 4a88 ac3f 4526 7141 9544 eb3f
000007c0: be33 d3d8 3235 7bbf 57c6 4fb6 45a8 cabf
000007d0: ac5b 9192 c63e eb3f aa52 5699 0aaa c2bf
000007e0: aa68 2fb4 88db d5bf 0000 0000 0000 0000
000007f0: 91b5 89e6 9e7a c83f c922 692d 4200 b6bf
0.0 -0.08520991279904828 0.0012562143962374281 -0.0328127611426213 0.0 0.03211666823651731 -0.06880995901101022 -0.004515476089869474
0.5516254784692208 0.0 0.06002016817895513 0.14889971184533443 0.0 -0.768224963023762 0.0 -0.29770697612064184
0.08097026141987759 0.046589008787474954 0.5213947141794697 0.07485935409641171 0.22068046991277077 -0.04398808204385991 0.10418719540108534 0.4420714941802794
0.0 -0.2906438053699629 0.0 -0.11207029017083242 0.07255930897867222 0.0 0.23486186472573228 0.0
0.0010909311746925996 -0.08542724626646157 0.07514828654178715 -0.017272537376454268 0.3143231285285055 -0.3169204095294167 -0.17032977502781388 0.0
0.14864894382355556 0.0 0.054344421881340074 0.19328595964631737 0.0268587082701146 -0.6635910150179792 0.15624052828996315 -0.07365220536671449
0.15458848141451664 0.260901621349828 0.4174899718529601 -0.02287540529045745 -0.009063215639990511 -0.48993292165136454 0.21652224927122066 0.5130597686129186
0.06466507876480815 -0.20875614524276154 0.4510265646229813 -0.2935745395970015 -0.3594008055027739 0.0 0.06431580714735799 0.0011241685997201512
-0.01881034920279455 -0.11492950320417497 -0.5727065798249826 0.021274338243930022 0.4443020968974925 -0.040846984840534895 -0.23225474235791932 0.04797206308350379
0.25564935563008395 0.12356377000397303 -0.15893130197422906 0.39746515041827607 0.03164762231818968 -0.5054121490300223 0.06113632494112046 -0.0547244924555139
-0.02378208151452085 -0.13314262784895184 0.3716685351775924 -0.17482955595388394 -0.12035989617518494 -0.448555690082764 0.1547402793390455 0.6653752509445436
0.0 -0.26968489066034423 0.8714271329072432 -0.633649485161953 -0.31380498135324775 0.0 0.14281572429368372 0.06787174918733174
-0.009126775365962462 -0.17281513896854656 -0.03083887872477837 -0.03935270927132779 0.1778707321188886 -0.28709057559410767 -0.19149012362696755 -0.027063838433017726
0.518473014980273 -0.0012216437855731006 -0.04761258486098297 0.32903995623632654 -0.008252578117527389 -0.7403803487812897 -0.10287500130337925 -0.28110978143208476
0.08913078480082944 0.025138794106652325 0.6297023184753209 -0.251724722364654 0.12818134038249593 -0.4122944988757034 0.33140497316773593 0.5883178933418178
-0.02668348911638939 -0.27414620479509133 0.3495977691386093 -0.5017459056949836 -0.1073717520881298 0.0 0.2334587939281752 -0.06787444874150608
0.04203949553504659 -0.08593623222658614 -0.07569545146680734 0.0341003781598318 0.3818559715090635 -0.2646710520601688 -0.06270908175137418 0.008276183901576023
0.18051646205798447 -0.011053783041772021 -0.24407929389431215 0.7144552625636716 0.01994817901737672 -0.7556078016506902 0.05566868590010045 -0.062303850604473944
0.09188466917005687 0.25226985577680666 0.1869558842323808 -0.1481213297981541 0.09742390125348198 -0.3486289090883058 0.33662567109113034 0.5441553848930851
0.006169316553789056 -0.2669693303247484 0.5215470056883207 -0.2764902506056973 -0.16439275665876266 0.0 0.022269540333009426 -0.017993270019022525
-0.013651366054619307 -0.09413853330700866 -0.3085010471558357 -0.021536272678095204 0.3756231481548622 -0.12368493514399655 -0.21129775784021484 0.08732087475907409
0.3349435111736714 0.016750245161288153 0.12843649601684387 0.48783125620228796 0.11182833728015473 -0.9621310851123488 0.03396944528030334 0.04786360668349337
-0.06311531009849677 -0.10596260780676525 0.49829534351694654 -0.20294754426404463 0.13341424885733935 -0.4807000085985415 0.2682550777599461 0.9028059075610322
-0.016899544644406853 -0.17099041203208742 0.7242415676068298 -0.1669645464288329 0.03518221318458322 0.0 0.24590532285318503 0.0013739057967888607
-0.008159698620747979 -0.13120065252997234 -0.4009148677171935 0.05174530444559777 0.36376776183540105 -0.0903249332814101 -0.14730492313968432 0.05514429766233416
0.1892483786098396 0.0784419294242341 0.044062568053797484 0.293417525235329 -0.00257824840154495 -0.6143045885963095 0.05767059855909343 -0.22981613771910886
0.049549767081116726 0.4372911378277257 0.5626766602750845 -0.1856576621302523 0.0 -0.2708479295107864 -0.23089950042973703 0.7453354676751601
-0.037778672544038785 -0.2857151056030284 0.5963208445237128 -0.1980514056920473 -0.2158115452414378 0.0 0.16360285122228746 0.012020222623729211
-0.009960986829250064 -0.09101497363486163 -0.22767732822314632 0.009992280953751128 0.44468989821967264 -0.19916029627291934 -0.1533796021193771 -0.07279748779719941
0.10200875377646172 0.13073265280582994 -0.060363392344856555 0.30046571473715045 -0.008197346032608271 -0.7155876312093792 -0.07754765519392832 -0.3141989481277775
-0.10401801726510952 -0.027612059520504263 0.26270044742705556 -0.059734748326641295 -0.13145877539769688 -0.6980111229555127 0.0557273207266631 0.8521219518817779
-0.006642531033503594 -0.20826026346144275 0.8514130461361353 -0.14581425177734292 -0.3415242919560436 0.0 0.19124208695158676 -0.08594144447955467
