tcav_data/cavs/eager_disco_16/best_model/concept_1_layer_0_cav.npy (npy, 25728 bytes, 1 tensors)

array f8 [3200]
00000000: 72dc 7e2a ef1d 923f 5095 da2c 2472 b7bf
00000010: b42d 21c8 8da1 ddbf c1ca f42e 5f93 91bf
00000020: 9d45 76b1 ed4e a5bf a0b5 2f0f 2b30 98bf
00000030: 7682 1386 e8d7 9cbf fbb1 0c8f 060b a13f
00000040: a1d7 12dd 87a3 d63f 0000 0000 0000 0000
00000050: 1448 f2b6 a009 77bf b36c dcd6 39f3 b53f
00000060: 1443 690f d0fa 943f dfaf 329e 7101 d8bf
00000070: 57ea 9d30 6470 9bbf cf2c e4f2 6858 d0bf
00000080: 8cd5 9d96 7642 d23f d7b6 cf26 fb42 b13f
00000090: fe56 031e 9685 e33f f990 92ee 3143 b6bf
000000a0: c742 418e ee32 7d3f e531 b78a 24d4 b2bf
000000b0: 8e9c cb65 03c0 c53f 4cd3 3e3d 3f5e d23f
000000c0: 0000 0000 0000 0000 3b2c 03bc 7a38 cdbf
000000d0: 0000 0000 0000 0000 b4f0 2bb8 f2a4 d2bf
000000e0: de4e 3f90 75f3 d1bf 0000 0000 0000 0000
000000f0: aae6 bb24 f83a adbf 0000 0000 0000 0000
00000100: 8e46 4e26 d769 78bf 1716 9d94 11d2 c0bf
00000110: 0caa bc6f 4bd8 d1bf aa60 179e b7ca b3bf
00000120: 37de 138d 9d41 e83f 7be5 9a08 ba2f 993f
00000130: 0a0d 0c92 4e51 a1bf 0d59 e33d f4e0 a63f
00000140: f0c1 aeb8 650b d73f cac2 51b6 787d c43f
00000150: 47b2 4558 3c60 95bf 59e4 a23f b145 dc3f
00000160: 8ec8 42c0 0b60 a8bf 48c1 4bdc 849c d5bf
00000170: 159c 4676 8b4d acbf 2b56 548c c3ed 933f
00000180: eec2 a429 52b0 d53f 1b4b 066d 5812 d0bf
00000190: 4711 b7c3 7edc d83f 8a62 1c06 8330 c0bf
000001a0: 247e c0d8 14e0 d53f 9171 721a 572f e0bf
000001b0: fb4e 808d cf7b c53f 5706 8bd8 38e3 d73f
000001c0: 09c9 51f7 95e1 b2bf eb1a 4d87 e597 d0bf
000001d0: 7cb2 310f 3f3f e33f d8fb b099 960d e7bf
000001e0: 51c7 d346 c0e1 d1bf 0000 0000 0000 0000
000001f0: 1f22 dbd1 d36e a7bf 4d2d 7ef3 b6d2 843f
00000200: 28d8 976a d5d1 9cbf af39 196f 5e24 75bf
00000210: c362 25d4 cea8 c1bf fbc3 52e6 9898 9bbf
00000220: 6aad 9c79 7a1f b63f 1157 1555 365c acbf
00000230: aa10 95a0 072a a43f fc13 ab25 368f 8a3f
00000240: b1ab 5bf6 79be c43f 0000 0000 0000 0000
00000250: 12c1 7437 6f9d 703f 80a5 c1b1 e564 d63f
00000260: 8fe9 7af3 5893 b73f 18c2 d3a1 8608 cdbf
00000270: 5140 16f3 5b3e a03f 728a 03ad 3c5f b33f
00000280: 3a11 8372 ed07 a13f f778 aa7a bf38 d1bf
00000290: 586e e783 03d2 973f b442 f89e 285a 813f
000002a0: 2b81 161b d602 a53f 20e4 8842 082e c0bf
000002b0: 2d08 782d dc5d d03f 487a cc15 fec2 d13f
000002c0: 3e60 591d bd8b 89bf dd55 f186 e834 c1bf
000002d0: df79 184b 64a6 de3f c12d c5ca b5bb e7bf
000002e0: a1ff 6c0e 5029 c7bf fe8d 0490 0dda 80bf
000002f0: 03f3 7c41 08f7 b03f cc0c 4ed4 e78b b2bf
00000300: 6147 1503 1934 9dbf 4e7e def5 fb46 aebf
00000310: 3109 9e05 1adb c13f 09f4 53f1 bedf c2bf
00000320: cbfa c7ff 7326 a03f 6cd2 509e fbe5 c23f
00000330: 997a 3bb7 d70e adbf 43bf 9f2f c794 abbf
00000340: 4a08 9235 67f0 c53f 0000 0000 0000 0000
00000350: 1de0 eb24 26eb a8bf b96a 3952 7a6a d33f
00000360: 002b 8152 e798 b5bf 39e7 0498 373d b5bf
00000370: 7f3f 5d2b f8f9 733f bdb2 5776 5564 b43f
00000380: d7b9 e3b5 0410 a4bf fcd8 667a 17ac 973f
00000390: 7718 21f6 7a54 cd3f fdc4 50ac 3343 c8bf
000003a0: f3dc f875 ba38 c73f b9d3 6b7a 8481 cfbf
000003b0: b7bc b189 a026 ccbf 1747 40b3 8993 be3f
000003c0: 8d91 6ff2 bdc1 b33f d050 a853 7d71 c4bf
000003d0: 537c ba8e fb0d a63f 3084 475f 7876 dbbf
000003e0: 23fe aeb4 4601 d0bf a6f2 3ce1 a071 71bf
000003f0: 84c7 3683 eb08 943f 21db e200 7fa5 b63f
00000400: a2a9 4389 2b67 82bf e2cf 5e94 df2a abbf
00000410: 579c 5c71 f559 cfbf 6c2c 1a60 50dd c0bf
00000420: 4cc3 b598 58c1 cc3f f797 20c5 a189 ba3f
00000430: ed05 62f7 1493 d43f f811 79bd dacc afbf
00000440: 46b0 f925 07d1 b8bf 162b 83eb f594 b23f
00000450: ba1a 0a6b 2f1a 903f f73b d483 0ab1 36bf
00000460: 48eb 13bc 3270 b43f af08 8979 2c6f e13f
00000470: 7426 f054 6810 94bf 794d e048 bb6a da3f
00000480: 505d fa1e 740b b73f 84d5 2ade d8f3 d6bf
00000490: 4e2a 2aa5 b3f7 b6bf 4982 a85c 6604 aabf
000004a0: 25d5 6091 19b6 d93f 5585 f838 de0f d2bf
000004b0: f8a3 4cb8 7934 a23f 8ddd 7246 fb85 b23f
000004c0: 1f52 c29f 44a4 b13f 4067 2be4 b417 ccbf
000004d0: c782 99bd 4eff c63f 57fb c29c 3258 cfbf
000004e0: 235c 2ef7 85e7 98bf 40fd 8f4d 3ef6 813f
000004f0: c3ad 7791 be44 babf 8568 bdb3 a093 ab3f
00000500: 1e87 e63a 0ca9 b23f 14f2 1aea 7f1e b93f
00000510: 41d3 8266 b7eb b93f 1a9e 90cb c322 cfbf
00000520: c9a9 d1dd 3cf0 ba3f 39b9 a148 900c c43f
00000530: 07fa 67b5 589f c23f 0eaf ebbf 51c6 98bf
00000540: a442 38d2 a9cf d6bf 61ba 8136 1e26 a4bf
00000550: ae47 1dc6 ee1f bdbf 1151 3b2e f3bf c13f
00000560: 0000 0000 0000 0000 c271 3e36 59df c6bf
00000570: a255 37cc e594 b93f 91a9 2b5a 906c cdbf
00000580: de24 e9b5 97bf cabf 351c c108 db0d 95bf
00000590: efbd 0e9f f6ab dfbf ddc9 acc9 7135 a5bf
000005a0: 71d8 3425 d5a2 dc3f 04a9 595c 13c2 c4bf
000005b0: 9411 7284 4d75 b4bf 2cd8 0e51 4c24 d4bf
000005c0: c8df 0c5b 2104 d63f ec5a 4f6a 8751 543f
000005d0: 4b42 0933 57a8 dabf f22f 8f1c ad2e 84bf
000005e0: 0950 a985 b8d4 c3bf 0000 0000 0000 0000
000005f0: d3e2 f3fd 7532 a5bf 6781 7cf6 629d 963f
00000600: be49 8125 b738 88bf 4489 7d5f 6487 c0bf
00000610: 9f24 fec0 a58d bc3f 0f96 82c4 37ad ab3f
00000620: 6af6 0581 e8ec 9abf b599 7147 f4ce c73f
00000630: a98a 0518 16ed b63f 6c0f e2a1 afa5 a0bf
00000640: 04ef b06e ea66 d8bf 6973 ab68 cfe7 b43f
00000650: a616 98e4 6ea2 b83f fb17 0d9b 80b6 bdbf
00000660: b921 9196 ae49 843f 7a99 d720 5f17 e33f
00000670: 0000 0000 0000 0000 564b 20aa f99c d13f
00000680: 289f 73b8 07b6 c0bf 2b89 bf38 1a07 743f
00000690: 03fc 74a0 8f33 dbbf d2f2 0ff6 fc7f dc3f
000006a0: 13e7 c04c 5b4c c53f ffe8 c711 d3d5 d63f
000006b0: 2e86 cc7f 5c95 d7bf 6804 ffcd 4757 d6bf
000006c0: 649c 3d5e 8816 a93f 8f06 b111 5407 c03f
000006d0: 518a ac50 58ac cbbf b5e3 d921 de9c 98bf
000006e0: 7951 4ab2 df5f b93f 428b 73fb c504 a13f
000006f0: 7123 1fc4 ffdb cabf 0612 3e67 94c3 b43f
00000700: 0000 0000 0000 0000 8fd0 23c4 eabd c03f
00000710: 8183 2557 2f03 a5bf f82a a50b e6f2 68bf
00000720: 6abc 5b70 b471 aebf 1fd2 f50d 81c7 ca3f
00000730: ff99 c624 f64d d13f 8c5d 0a78 5fbd 97bf
00000740: 7e1e 2f04 1922 d7bf 868a 3765 ab9d b43f
00000750: d24f c5ad 6f27 7b3f 0075 aa56 801a ddbf
00000760: 0000 0000 0000 0000 6938 6830 4bcb d63f
00000770: 7bbd bb30 4260 96bf 9912 255d 784b cf3f
00000780: 94d7 8529 8b8d 813f 52d0 8589 722a d03f
00000790: 4230 332d 1d2a d8bf 45d3 72d6 3f2b c63f
000007a0: 9e3d de41 1e18 96bf e37c a8eb 68e8 d43f
000007b0: 8955 05e3 1a87 c6bf 9648 ee7e 0a61 e0bf
000007c0: e52c 828c 0885 90bf 9c68 f249 d019 c63f
000007d0: 85b9 0510 923f e0bf 096d c785 92f3 c9bf
000007e0: 6833 8e9c f205 663f 0000 0000 0000 0000
000007f0: 5ee9 75cc aa3a aabf cf20 23a2 d8e5 7fbf
0.01769231507179509 -0.09158540816368554 -0.462985463561121 -0.01716374134157195 -0.04161780158313919 -0.023621247102644127 -0.028167374785768882 0.03328724380694222
0.3537311228677656 0.0 -0.005624416152516094 0.08574258323317245 0.020488024654983297 -0.3750881237890535 -0.02679592653974291 -0.25539611549238556
0.28530659397741753 0.06742829988044306 0.6100569330398853 -0.08696281504177596 0.007128650529992959 -0.07354954134570553 0.1699222800300259 0.28700238209721785
0.0 -0.22828611545841845 0.0 -0.29131763444435 -0.28048457228326906 0.0 -0.05709052513516373 0.0
-0.005960312298059057 -0.13141078716778118 -0.2788265792065949 -0.07731196984912239 0.7580096965238629 0.024596125388347084 -0.03382344754029461 0.044685013346383064
0.3600706389943573 0.16007908727944758 -0.020874922645292917 0.44175368513567076 -0.04760777208265764 -0.3376781607940029 -0.05527911967083569 0.019461684646634374
0.33888677660711053 -0.25111971518451676 0.3884579573898645 -0.12648046301253074 0.34180184523754265 -0.5057788387817245 0.16784090432394536 0.37324353358062495
-0.0737546662146863 -0.2592710324574187 0.6014704987297388 -0.7204087259086647 -0.2794037524864637 0.0 -0.04576742111891385 0.010167531305134725
-0.02814420188038738 -0.005161637194375165 -0.13796410902684472 -0.026949299867457182 0.08641782254260524 -0.055391023527290646 0.03938316188080766 0.012968466782135472
0.1620628788872103 0.0 0.004056391181890955 0.34990827902819177 0.09209209389056226 -0.22682269002645294 0.031725762771316675 0.07567195152254572
0.033263607243073826 -0.2690886209401379 0.023262076307089735 0.008472745276806172 0.041037264639501046 -0.12640479325071485 0.25572876396484184 0.27752639893325126
-0.012473561723865708 -0.13442713345527482 0.47890574773364664 -0.741663833652119 -0.1809482641638143 -0.008228403050970275 0.06626941298322823 -0.07244728978371312
-0.028519049466303573 -0.05913531662303893 0.1394989516666754 -0.14745318206396998 0.03154337403610937 0.14764352064379993 -0.05675386535380262 -0.053869461596944855
0.1713990222525033 0.0 -0.0486690445013098 0.3033738902064829 -0.08436437382003348 -0.08296534978299243 0.0048770612828120665 0.0796559728548329
-0.03918471069652057 0.023117415281114426 0.22914063470870236 -0.18955083764880234 0.18141871223790637 -0.246140060211159 -0.2199288055739765 0.11943874956366717
0.07717501801341183 -0.15971342644537012 0.04307542912760511 -0.42910584740281177 -0.25007789273147035 -0.0042587551468470704 0.019565276988664518 0.08846277019152328
-0.008985843779062478 -0.05306147276078811 -0.2449328235172483 -0.131753966259882 0.2246504541067459 0.10366259634665186 0.3214771667336141 -0.06210979044820769
-0.09693951298840017 0.07258545875371811 0.015724888713999553 -0.0003462458297044941 0.07983700839751606 0.544821011899577 -0.019593839821061512 0.41276437870802557
0.09001851803110594 -0.35863324829127685 -0.08971712858525757 -0.05081481820184714 0.4017394942960258 -0.28221850932648823 0.03555660605190519 0.07235689611376568
0.06891278171890079 -0.21947346821871783 0.17966636903567787 -0.24487908033730818 -0.024320691310631425 0.008770453207033513 -0.10261145640804785 0.0538606852921513
0.07289196432114095 0.09812163796863899 0.10125299694739189 -0.24324843826001158 0.10522823729994636 0.15663341089698138 0.14548786981318093 -0.02419402822390198
-0.35642476586603267 -0.03935331740727999 -0.11376850449349149 0.13867034680755144 0.0 -0.17869105480794018 0.09992824779268131 -0.22987560656413256
-0.20897194273337666 -0.020560667428324037 -0.49487081082312917 -0.04142337405064087 0.4474385131210346 -0.16217271813668088 -0.07991489871535001 -0.31471546092814395
0.3440020932353005 0.001240141145208258 -0.41652469619751703 -0.009854652818738405 -0.15492922331270645 0.0 -0.04140061116226481 0.022084757131893975
-0.011826926071226814 -0.12913183844200138 0.11153636895882578 0.054055922258424365 -0.02629435813422846 0.18600324142898975 0.0895551499029731 -0.03251408434974121
-0.38128147897417386 0.08166214280522656 0.0962285335627607 -0.11606601510456464 0.009906162233293313 0.596602977890867 0.0 0.2752060090435199
-0.13055511957576837 0.004889585903557407 -0.4250220362627603 0.4453117754890573 0.1663927197239948 0.35680081116119305 -0.3684912918125488 -0.3490771781617412
0.04900003576658987 0.12522364486544688 -0.21619705142173243 -0.024035902801617676 0.09911916830816904 0.03323954290842447 -0.20983883930446326 0.08110930939262326
0.0 0.13079580857413872 -0.04103992403793822 -0.0030455105853993657 -0.05946124908029378 0.2092133825459692 0.2703833922518299 -0.023183337880792673
-0.36145615967368616 0.08053084584347844 0.006629406209260185 -0.4547425123544855 0.0 0.35615806319481763 -0.021851572250793688 0.24449066684805557
0.008570754246402669 0.2525907843585219 -0.3775704327970325 0.17319486590499814 -0.021576378603240458 0.3266851712559868 -0.17599807820321825 -0.5118458251111118
-0.016132482124288656 0.17266276941956427 -0.5077600777565726 -0.20274573833635426 0.0026883829600081073 0.0 -0.051228845079964044 -0.007787557815568571
