tcav_data/cavs/eager_disco_16/best_model/concept_2_layer_3_cav.npy (npy, 1152 bytes, 1 tensors)

array f8 [128]
00000000: cee6 b18d 1b1e e83f 5513 ef7c 9c68 a93f
00000010: 0000 0000 0000 0000 befe 707a cceb f2bf
00000020: 0000 0000 0000 0000 0000 0000 0000 0000
00000030: d873 a5b3 96a0 b33f 9227 6dff 8895 c03f
00000040: 4010 8106 18e3 d5bf 0000 0000 0000 0000
00000050: 2757 7a9a fc06 c5bf 965a 33a7 1201 b1bf
00000060: 0000 0000 0000 0000 65df 25c9 5d94 f03f
00000070: 0000 0000 0000 0000 7449 4ab2 ef5b 9fbf
00000080: 670e 6d6d ddc7 d2bf de83 a69b 36c9 e33f
00000090: 6a1b 819e e1e9 b63f 47d2 0d23 2976 6cbf
000000a0: ea02 520e 02ef a9bf 0d79 1130 4656 fd3f
000000b0: 0000 0000 0000 0000 b0d9 1e34 b4ce e0bf
000000c0: 9c0b 204b d619 0bc0 1c6a 99fe cfc8 e93f
000000d0: 4898 da7f 5dbe e23f b8e1 97a1 19cd 463f
000000e0: 0000 0000 0000 0000 7ceb 4a21 3998 f6bf
000000f0: 26cb 8ebb c5c2 eebf 2103 f7cd d2d6 ce3f
00000100: efd6 1a03 0028 5dbf d65b 21e4 b8dd 833f
00000110: 3d87 5692 b7ca fabf db07 05b4 2654 e0bf
00000120: 6452 1295 6c2f 02c0 6133 b64e 2520 f83f
00000130: 887a 7b5e 29d8 f13f 1416 fdec 5ad7 e93f
00000140: 0000 0000 0000 0000 0000 0000 0000 0000
00000150: 7c92 9cfa cee9 b4bf 2985 7374 830d cd3f
00000160: d88d 2fb4 e389 ea3f d7ea 4d5a 55d4 7fbf
00000170: b052 c5e7 fe0f d2bf 0162 e590 28b0 ee3f
00000180: 0000 0000 0000 0000 ad13 b0bf f0d5 04c0
00000190: 9ea3 a306 c1e0 533f 0000 0000 0000 0000
000001a0: a5c4 0c51 a85f e13f cab4 2686 04ce e3bf
000001b0: 0000 0000 0000 0000 0000 0000 0000 0000
000001c0: a90e 9cad b54a e13f e011 4d9a d1d2 83bf
000001d0: e1bd fbde 2948 acbf a8ba 42b9 0fc5 c13f
000001e0: 3ee8 d3c8 6a06 f0bf ee9b 7fe7 92e0 07c0
000001f0: 0000 0000 0000 0000 09d4 fb2f e237 0040
00000200: e109 b1bd 44d8 00c0 d049 97da 4af5 e3bf
00000210: 76b5 1101 ac89 cfbf e68a 5821 ce31 c23f
00000220: c069 19bd 2e25 4b3f 9186 3350 b9b1 ebbf
00000230: 99f0 379f 427e cebf a707 d216 bf84 68bf
00000240: 0000 0000 0000 0000 da72 b60d fe68 b83f
00000250: 5e0b 1b69 a632 b3bf 0000 0000 0000 0000
00000260: e3a2 a459 937e df3f 9a68 96b6 fe89 b4bf
00000270: 5e15 a3e6 fbf2 e93f a57c d340 f11e d33f
00000280: bf19 3cf0 4db4 7a3f 1d59 36d5 c794 e7bf
00000290: 0000 0000 0000 0000 f230 c7c5 896a e73f
000002a0: 3b3a 2a7f 483c ddbf 9041 fd66 6965 b13f
000002b0: 0000 0000 0000 0000 5a60 b9e4 cc5f d7bf
000002c0: b816 e8b6 dfac 333f 13e0 7a8f b49a e43f
000002d0: 4d90 4a06 449f d9bf 62d7 f6b5 bef4 0140
000002e0: 64f1 6673 0b4e ce3f d473 7c48 0893 d4bf
000002f0: 0000 0000 0000 0000 3aef b398 cd54 b83f
00000300: 8201 f5cc a3e4 c13f 85ce fbdf 27ba ccbf
00000310: 3cf5 96bc fc63 a7bf ba83 8617 9c23 08c0
00000320: 9364 9436 cfa1 c73f 0943 eeba a55c 8bbf
00000330: c0cb c6d7 eb35 c83f 99a0 3658 4659 f03f
00000340: 0000 0000 0000 0000 0000 0000 0000 0000
00000350: 2b92 3bb5 07ee b63f 7a4e e1dd 6d79 df3f
00000360: 8cce dbaf 7f46 e33f 5453 decc 6a3a c3bf
00000370: c411 a1a8 a911 f9bf 0000 0000 0000 0000
00000380: 0000 0000 0000 0000 0000 0000 0000 0000
00000390: 0a3a be3c b945 fabf 0000 0000 0000 0000
000003a0: 30ee f755 c971 bdbf e6d4 32d9 944c 6fbf
000003b0: 862b 22c4 954a e83f 70f8 b99f 9843 803f
000003c0: 9264 faae 255d e13f 7664 d711 48cd d43f
000003d0: bd8c 149e ddd8 eb3f 482a fdfc 965a e0bf
000003e0: f8cd f3a1 2db8 0140 23e7 d4de df39 00c0
000003f0: 61d3 4d5c 8105 c1bf 5e6e ba95 b447 d13f
0.7536752479056419 0.049626245737761344 0.0 -1.1825680525652582 0.0 0.0 0.07666913877387971 0.12956345054618318
-0.3419857085721141 0.0 -0.164275718144091 -0.066422620602092 0.0 1.0362222535458951 0.0 -0.03062414670655174
-0.29344878851063644 0.618312171940598 0.08950624580130087 -0.0034743121581704314 -0.05065161156472249 1.8335630300203463 0.0 -0.5252324121454901
-3.387615763583609 0.8057632420198533 0.5857379433771337 0.0006958365585765713 0.0 -1.4121638584608425 -0.9612759268987687 0.24093089157943218
-0.0017795562857094124 0.00970024534414719 -1.674491473801438 -0.5102723613747416 -2.2731563230720884 1.5078480791737194 1.1152738276211114 0.8075384739574383
0.0 0.0 -0.08169263475844873 0.22697489915939542 0.8293322104695404 -0.007770856293854953 -0.2822263015162134 0.9590037183762093
0.0 -2.60446309810728 0.0012132534998789755 0.0 0.5429269392972357 -0.6188986415997075 0.0 0.0
0.5403698340237116 -0.009679448624987097 -0.05523806426014822 0.138826337298686 -1.0015666813692543 -2.984655197698422 0.0 2.0272868870474707
-2.105599863019265 -0.623692919669617 -0.2463889126988012 0.14214493396965294 0.0008284071174771632 -0.865444809573278 -0.238228156798759 -0.0029929859361467917
0.0 0.09535205683500739 -0.07499160829597204 0.0 0.49210056070528035 -0.08023063619330842 0.8109111313466817 0.2987635739390931
0.006519607970182083 -0.7369116939833337 0.0 0.7317551482060749 -0.4568043939442849 0.06795367016207465 0.0 -0.36522219024982905
0.0003002210786749826 0.6438849260657683 -0.4003458081663254 2.244504376979351 0.2367567361342352 -0.3214741428253636 0.0 0.09504399278733625
0.1397900343672625 -0.2244310229940433 -0.04568471719856368 -3.0173875654149613 0.18462553181669658 -0.013360304610416944 0.18914554630245384 1.021795601447627
0.0 0.0 0.08956955122591441 0.4917864481733215 0.602355807756298 -0.15022025111525272 -1.566812189777111 0.0
0.0 0.0 -1.642022359159116 0.0 -0.11501749371375847 -0.003820696563333048 0.7591046171886411 0.007941429495300606
0.5426205079594573 0.32502938978502216 0.8702228629594156 -0.5110583249273271 2.2149307873275994 -2.028259030220299 -0.1329805088713796 0.27000155088328437
