tcav_data/cavs/eager_disco_16/best_model/concept_3_layer_0_cav.npy (npy, 25728 bytes, 1 tensors)

array f8 [3200]
0	0xbf8795d7ea879171	-0.01151627239682604
1	0x3fc266f5298b20be	0.1437670185898749
2	0xbf74ca25fbf26038	-0.0050755962139633
3	0xbfc0c4a2a0187934	-0.13100083176773014
4	0x3fb0b3b37383c212	0.0652420193689596
5	0xbfb37bc6f3f816a3	-0.07610743957783454
6	0x3fb5fcfd6865d623	0.08589156912588485
7	0xbf7560572edd9bbe	-0.005218830641616044
8	0xbfd500574cb062da	-0.32814581383858654
9	0x0000000000000000	0.0
10	0xbf9608a2703eae55	-0.02151731309974843
11	0xbfac1e95bb4e1932	-0.0549208441871535
12	0xbfb6ba7ceab6a9d1	-0.08878308039007911
13	0x3fd507525a2825f2	0.32857188038232643
14	0x3fbf4388d03a7a86	0.12212424358083682
15	0x3fc4536650de1ae9	0.15879515598881902
16	0xbfac675f270b9ed5	-0.055476163402827496
17	0x3f9c58061219b220	0.027679533819922608
18	0xbfd9868cba58d29c	-0.39883726308770817
19	0x3fb41a1f13ad2bbe	0.07852358084089325
20	0xbfbba823d7185c96	-0.10803436280581233
21	0x3fc6d1955d407c1e	0.178270979436065
22	0xbfd349f4818c0d58	-0.30138886118966957
23	0xbfcc521641741de6	-0.221255094489819
24	0xbf99044621ed2f8f	-0.02443036634512868
25	0x3fd7acbe2724c84c	0.36991838286042333
26	0x0000000000000000	0.0
27	0x3fe43a38c6ccb84e	0.6321071512991325
28	0x3fd2e4646e7e74f8	0.2951899603884409
29	0xbf69db4eff3c1a08	-0.0031563322935455086
30	0x3fbb2b5ce9aefe86	0.10613041596570313
31	0x3f941675dd92f76e	0.01961692967301281
32	0xbf9f4fb2c32eb72a	-0.03057746235179263
33	0x3fc3195fec7b3c15	0.14921187445585873
34	0x3fc62dd1f6422bf5	0.17327332043018343
35	0xbfcfc27b837716b3	-0.2481226341171144
36	0xbfc36cecedc372f3	-0.15176164254707877
37	0x3fdea08126e61522	0.4785464172239974
38	0x3fd11de39729932e	0.2674492813296635
39	0xbfa13acef7e32fca	-0.033651798019121396
40	0xbfce7424225d9e45	-0.23791934659969818
41	0xbf651d35be361efc	-0.002577404944250959
42	0xbf9c522a636a1192	-0.027657186811227037
43	0xbfe078c42862409e	-0.5147419728036942
44	0xbfa6252bd469b4f7	-0.04325234382563708
45	0x3fda02804369e4ed	0.4064026506744785
46	0xbfaa8f3bfc7d4aac	-0.05187404114862679
47	0xbfd7e40b82c95ec0	-0.37329376003388504
48	0x3fc46f48ca4034c1	0.15964612842109285
49	0x3fc3af7591ca787e	0.1537920915479311
50	0xbfd3ce6173cb1e31	-0.3094714766307077
51	0x3fd27f94fd9ae8a2	0.28903698698162306
52	0xbf920cda2718053e	-0.01762715209588816
53	0x3fe1d0b40c014e93	0.5567264780497275
54	0xbfba7220e5ed2121	-0.10330396283564315
55	0xbfdf6e224d25ddf0	-0.49109704526878684
56	0x3fac8846847807c4	0.055727199240223096
57	0x3fc5501dbbf94d83	0.16650745085153681
58	0xbfe94b082afaa925	-0.7904091681896587
59	0x3fe7b59bdd9b2f8f	0.7409190490957246
60	0x3fcf3ad6dd652d36	0.24398313341439753
61	0xbf7997c8caf62300	-0.006248268458315165
62	0xbfbdbb1422a39ed8	-0.11613584371263685
63	0xbf9b0f011b5b8433	-0.026424424452560834
64	0x0000000000000000	0.0
65	0x3f9abb5cb1daa704	0.02610535464797349
66	0x3fd0c6ab05e1ac7c	0.2621257359921356
67	0x3fc8db147af8a556	0.19418579105812722
68	0xbfb445bc900066e3	-0.07918909564650849
69	0x3fc09a054cc50fe6	0.12970033882640947
70	0xbfcb940476e5eec4	-0.2154546337659352
71	0xbfa052f692bbd226	-0.03188295880491791
72	0xbf9490c4ae2e20de	-0.020083497172465374
73	0x3f65bfce9216099a	0.0026549372275336937
74	0xbfb8919e275b645b	-0.09597195111145267
75	0xbfb03dbaa161e4a8	-0.06344191017150769
76	0x3fc01c442d503099	0.12586261951981184
77	0x3fe324c7ead069a6	0.5982398592198492
78	0x3fb251e1110dfc48	0.07156187692997762
79	0x3fc8f7efee03826f	0.19506644365084777
80	0x3fc9764561c1dd0a	0.1989218451815094
81	0xbf9245aa64dafacf	-0.017843878179287394
82	0xbfd1a074111699fc	-0.27541829746988333
83	0xbf959873704c94c0	-0.02108936665458283
84	0x3fb7cad5c36b039f	0.09293876667926647
85	0x3fc70fe35188d22c	0.18017236214804322
86	0xbf81794f28352d61	-0.008532160200636242
87	0xbfddc29ccf2311ba	-0.46500320652219396
88	0x3fbe07714d909cf7	0.11730106490778157
89	0x3fc5adec8f9dd018	0.169370241284583
90	0xbfd6c7c6d14405a0	-0.3559433978662927
91	0x3fc4323e31a8a9e7	0.15778329300640268
92	0xbf9fae92ca7bc4b2	-0.03093938217984222
93	0x3f779c9c106c3577	0.0057645889526275395
94	0xbfcba5313a693cb4	-0.21597876884559286
95	0x3fb22b19297bc48e	0.07097012770442943
96	0x0000000000000000	0.0
97	0x3fb54944be051e68	0.08314923895988502
98	0x3fd1cbf047f02ad1	0.27807242417536054
99	0xbfc6e7caacc2c12e	-0.17894872127136224
100	0xbfca86f068b2f8b5	-0.20724301445256335
101	0x3fd899ec527637eb	0.38439472248944523
102	0xbfa192ff6de41757	-0.0343246289867653
103	0xbfb9a7abeb83f08f	-0.10021471500289379
104	0x3fca6c0b4ea252d9	0.20642224635653042
105	0xbf6d3c7eb6a72f59	-0.0035688853142569585
106	0x3faf9e246d444921	0.06175340493986626
107	0xbfc8785ffca10193	-0.1911735518970202
108	0x3fa78b66bbed9fcd	0.04598542255445146
109	0xbfd6414e8c14255c	-0.34773601226387085
110	0x3fc4c15e3b79baec	0.1621511259467846
111	0xbfd6aa6cc325dc7f	-0.3541519075146837
112	0x3fb4a68b8b838cb5	0.08066627651310194
113	0xbfb801002483debb	-0.09376526729090078
114	0xbfc0df51c480df41	-0.13181516737835788
115	0x3fc3be84213359eb	0.15425159093020055
116	0x3fb8f0d33713c94c	0.09742469877872856
117	0x3fd75332d8d0877f	0.3644530408220063
118	0x3fbc9ca210fb431d	0.11176503100001552
119	0xbfd5655dadc8799f	-0.33431188555723595
120	0x3f9f5434d80ae79a	0.030594659506028778
121	0xbfa8b97eb84378a9	-0.048290214532003724
122	0xbfdac57fa26cf067	-0.418304356211371
123	0xbf75488a1129987d	-0.005196132015589436
124	0x3fbc3a2cc92c472c	0.11026267920922511
125	0xbf695d0947a7668a	-0.003096120953370034
126	0x3fd0a7a1b14fa1a8	0.26023142161877866
127	0xbf9ca6820296d759	-0.02797892704776159
128	0x0000000000000000	0.0
129	0xbfa68fc7361b7809	-0.044065690379042684
130	0x3fd8f3c530c53bad	0.38987855684984646
131	0xbf924797f335d92c	-0.01785123273790494
132	0xbfc061323566da76	-0.12796619040973994
133	0x3f81cc04480e56b7	0.008689912270522055
134	0x3fb496375429adee	0.08041711621051892
135	0x0000000000000000	0.0
136	0x3fba5873dc8f7ddd	0.10291217932489567
137	0x0000000000000000	0.0
138	0xbfa4d3f0d775bace	-0.04067947988629826
139	0xbfb1d4d2ee8e4d46	-0.0696536857997688
140	0x3fa61296b63c3478	0.04311057066488727
141	0xbf85473183bafc79	-0.010389696915238599
142	0x3f9a168218da9d8a	0.025476486937490196
143	0xbfb12e72e14bbebd	-0.06711500168216396
144	0xbfa1a6e93552f818	-0.034476554641045876
145	0x3f97e991b0e68ddd	0.023351932928234
146	0xbfb241cc4544e4be	-0.07131649676456939
147	0x3fc9f7eaecb46ad6	0.2028783469948709
148	0x3fce84b68ff4f4c3	0.23842508343833488
149	0xbfd1d522d7bfa8f5	-0.27863379544454797
150	0x3fc854136b70910c	0.19006579156951664
151	0x3fa41f9f13262515	0.03930375202896578
152	0x3faf9ce43be90f06	0.0617438624508662
153	0x3f9aac246bdf2723	0.026047295650449286
154	0xbfb54895feda7b0a	-0.08313882324226199
155	0x3fb643fd9b108896	0.0869749549461026
156	0x3f991bb16a0652e9	0.024519703003153124
157	0xbf77116af5b961ae	-0.005631845294907496
158	0xbfb1ffeaa55de8a1	-0.07031122720028062
159	0x3f946d7f7f55f713	0.019948951861343888
160	0x0000000000000000	0.0
161	0xbf84ba20fabe5bde	-0.010120637561881137
162	0x3fcbb6b4d6809044	0.21651325677624034
163	0x3f82624b60a0319c	0.008976544271740043
164	0xbf8d5be4cd32e81b	-0.014335429680034697
165	0xbf923c6a87925169	-0.017808594250327135
166	0x3f6a8e10ae67541c	0.0032415700727406304
167	0x0000000000000000	0.0
168	0x3fc0b0d1fcab15fe	0.13039612614936397
169	0x0000000000000000	0.0
170	0x3fb053a27057ec3d	0.06377616160163853
171	0x3fb8a701ea583ec0	0.09629833194071136
172	0x3fc3ffa30bd42792	0.15623891904425286
173	0xbfce9a7a28eb0501	-0.23908926961852475
174	0xbf920eb239829f97	-0.01763418651594825
175	0xbf977690f0354b6f	-0.022913231526512087
176	0xbf7de0847328d098	-0.007294194585984702
177	0x3fb41c72ae075dfa	0.07855908154248673
178	0x3fb1ed851490e53b	0.07003051521396213
179	0xbfb7636459041bc2	-0.09136035130732892
180	0xbef065e67d31eec9	-1.5638397439661834e-05
181	0xbfc66a466a3ba3ef	-0.1751182574001002
182	0xbfbec23481bb8e26	-0.12015083472538687
183	0xbfc336d7aec03502	-0.15011116059069002
184	0x3f801f03e3ad661c	0.00787165678564166
185	0xbf9cd4d22e03a9da	-0.02815559774254859
186	0x3fc7c82fda77c7e7	0.18579672019364965
187	0xbfdf3f5b40dc7d98	-0.48824197134123315
188	0x3fa6f9295fd20e04	0.04486970228847656
189	0x0000000000000000	0.0
190	0xbfbb3003b73b356c	-0.1062013933507921
191	0xbf8bb0ada26c2789	-0.013520580786934537
192	0x0000000000000000	0.0
193	0xbfb179d6ce6fdf18	-0.06826536693540353
194	0xbfbb5b64cd663368	-0.10686330809239808
195	0x3fb466d8a5e739b2	0.07969430971500094
196	0xbf92f5daff40054b	-0.018515989140728533
197	0x3fa4f11967dbc3f4	0.04090194123080684
198	0xbfb0a91ffd64524a	-0.0650806420929452
199	0xbfa339c722bed2f5	-0.037550185195334075
200	0x3fbcc8b399ceeb2f	0.11243746285519472
201	0x3f7cbf47715417ab	0.007018355439191308
202	0x3fc06b05256621c6	0.12826599432106728
203	0xbfbdff9becb8f23d	-0.11718153504711722
204	0xbfa9d1370bde7183	-0.05042430896648666
205	0xbfc6812c643fe79d	-0.175817059469236
206	0xbf0a2154ae6ba267	-4.9839398163890884e-05
207	0xbfc82bb3d21ea185	-0.18883369216679227
208	0x3fba28a85652084b	0.10218288524086565
209	0xbfd2170f738525d5	-0.2826574924589214
210	0x3fc2485cf9053184	0.142833348838746
211	0xbfb408cad695015d	-0.07825916041202192
212	0x3fbeb21ffcdabcac	0.11990547106937538
213	0xbfd84f5edf1f7360	-0.3798443964895366
214	0xbfaeb062a7125e03	-0.05993946351480519
215	0x3f9cd8d85eb0f2b7	0.028170948771946338
216	0x3fb532362895f4cd	0.08279741755355303
217	0x3f54bd8da12edaaa	0.0012658961393136416
218	0x3fbb43f63f162ebf	0.10650576629830776
219	0xbf9bedec7ce3b5b3	-0.027274794695520032
220	0xbf6d68565e1bb192	-0.003589790999163075
221	0x0000000000000000	0.0
222	0xbf455249f02a5946	-0.0006506787325005002
223	0x3f876d2a2cc8dd3b	0.011438683978765787
224	0x0000000000000000	0.0
225	0xbfb2132a2663f3f1	-0.07060492932573915
226	0x3fa3a6343724b260	0.03837741063248212
227	0x3fab8ffadcdfeddc	0.05383285471176766
228	0xbfccaf644a03bfd5	-0.22410253156658536
229	0x3fc6a1abe73b4d4b	0.17680882254226513
230	0xbfb1cfd0aea4a1a0	-0.06957725776431412
231	0xbfb794a0b9524d05	-0.09211163067293533
232	0x3fd1eeb624cbb7da	0.28019479363763156
233	0xbf816f6e1607800c	-0.008513317153244791
234	0xbfc4a685100be545	-0.1613317802764788
235	0x3fa5fc9f2916f476	0.04294297577460153
236	0x0000000000000000	0.0
237	0xbfdf2a06b36f6757	-0.48694007418599966
238	0xbfb6635ce81dd02d	-0.0874536577883311
239	0xbfcbac3671f11f74	-0.21619301379746114
240	0x3fac1e89095003e2	0.054920465838229196
241	0x3fd5a8e42f26612f	0.3384333095978204
242	0xbfa08b7b3fec65e3	-0.032314158967164074
243	0xbfbe5f932f87ce53	-0.11864585791027453
244	0x3fbd5a05c211d29c	0.11465488422420339
245	0xbfd23227c3dd6654	-0.2843112385504345
246	0x3fc1b07025a817bb	0.13819696272565615
247	0x3fc578e7076943ca	0.1677521501719908
248	0xbfb69b5b5642cdd8	-0.08830805641155537
249	0xbfc06541b23bb960	-0.12809010699079248
250	0xbf6697ac865502fa	-0.0027578706382488357
251	0xbfcb377a5db872ab	-0.21263055397220873
252	0xbfc2d134810c119f	-0.14700943280344078
253	0xbf7a5248cbeb4073	-0.006426128732258107
254	0x3fa8316764dd4e0b	0.04725192171340716
255	0xbfaffe4fd879dd68	-0.06248712079553337
