tcav_data/cavs/eager_disco_16/best_model/concept_0_layer_3_cav.npy (npy, 1152 bytes, 1 tensors)

array f8 [128]
000000 af 01 0a f5 d8 37 ea 3f 6c f6 93 7c 2a 75 69 3f
       0.8193173204345409 0.003107626897530127
000010 00 00 00 00 00 00 00 00 7f a4 08 43 d6 cf ed 3f
       0.0 0.9316207226994634
000020 00 00 00 00 00 00 00 00 00 00 00 00 00 00 00 00
       0.0 0.0
000030 a8 03 48 7b 78 d3 eb 3f 9c c5 cf e9 09 47 ef 3f
       0.8695642860258106 0.9774217192299832
000040 da 3a f0 34 b9 ca e6 bf de cb 54 8c 67 ef aa bf
       -0.7122465166047178 -0.05260776126888066
000050 65 a6 2c 39 c2 ec c1 bf 00 00 00 00 00 00 00 00
       -0.14003780166358407 0.0
000060 00 00 00 00 00 00 00 00 3b 60 64 4e e2 95 fd bf
       0.0 -1.8490927755538127
000070 00 00 00 00 00 00 00 00 a4 7e d1 4d cc b8 e6 bf
       0.0 -0.7100583572282244
000080 a1 d5 c1 e0 94 88 fc 3f d4 10 ee ef 68 4b c3 bf
       1.783345106084518 -0.150738827851575
000090 39 41 47 95 e1 97 bb 3f 1f 27 40 c0 4b 6f ba bf
       0.10778627295008371 -0.10326074069612588
0000a0 5c ac 36 8a fa b2 d8 3f ae 40 f6 d3 e7 17 f1 3f
       0.3859239911786909 1.0683363227617906
0000b0 00 00 00 00 00 00 00 00 2c d8 6c 6b 10 7b 00 c0
       0.0 -2.0600899117080385
0000c0 e0 90 b1 f5 91 2b f6 3f 3c 5a bf 65 ad f1 c9 3f
       1.3856372449309262 0.20268790691507543
0000d0 1d 09 7a 13 e5 a5 fd bf 00 00 00 00 00 00 00 00
       -1.8530016670998244 0.0
0000e0 00 00 00 00 00 00 00 00 9b 19 1a a5 a6 b1 c2 bf
       0.0 -0.1460464769517785
0000f0 69 87 2e 95 df ef e7 3f 2a 5f 20 5f 71 ac ca bf
       0.7480314172464492 -0.20838753838392537
000100 b1 57 f8 a5 2d 7b da bf e7 94 9d f6 68 45 7a bf
       -0.4137682076264993 -0.006413850796751697
000110 32 fc 69 4a d5 ae eb 3f df 6d 29 b3 5f 9c f2 bf
       0.8650919392965817 -1.163177203989896
000120 40 69 12 a9 8f 81 f9 3f 29 4a 17 91 49 e0 ff bf
       1.5941311458942238 -1.9922576587311005
000130 28 c3 95 6b 35 35 df 3f 87 b5 41 cf 25 8b 91 bf
       0.48762259966229005 -0.017132368826812374
000140 00 00 00 00 00 00 00 00 00 00 00 00 00 00 00 00
       0.0 0.0
000150 92 f8 3e 06 a7 a2 fb 3f f5 78 65 9c 09 fd cf 3f
       1.72721006812893 0.24990959297696916
000160 44 28 74 c7 31 40 f9 bf 66 ec 59 64 73 5c d0 3f
       -1.5781724730645843 0.2556427459709937
000170 dc 57 a5 09 96 53 c9 bf 78 f5 0d ab f3 23 b3 bf
       -0.19786334486951673 -0.0747673313726035
000180 00 00 00 00 00 00 00 00 1a d6 17 2e 29 1a f9 3f
       0.0 1.5688869286071907
000190 00 00 00 00 00 00 00 00 00 00 00 00 00 00 00 00
       0.0 0.0
0001a0 28 c6 5b 64 67 02 d7 3f 1c aa 4e 49 55 e2 da 3f
       0.35952172089227696 0.4200642791644513
0001b0 b3 9d 4f 03 73 36 84 bf 00 00 00 00 00 00 00 00
       -0.009869478739303305 0.0
0001c0 2f a5 73 41 3c 28 e7 bf 72 73 64 53 7d 3b b9 3f
       -0.7236615446428568 0.09856398855158746
0001d0 95 6a 5a 5e 81 ef 83 bf 7d 39 24 11 a3 75 c1 3f
       -0.009734163944178401 0.13640249573695576
0001e0 3d 66 8f 8b f8 d4 db 3f 5f ce ae d4 bd 98 06 40
       0.4348737109081389 2.8245808235022163
0001f0 00 00 00 00 00 00 00 00 96 23 34 11 57 a5 fb bf
       0.0 -1.7278662368791848
000200 90 b4 14 2e f1 0f f7 bf e8 51 93 e1 61 c5 01 c0
       -1.4413921165499097 -2.221378099735592
000210 5d 15 bd 49 ca 69 d5 bf 9e 7e b7 5b 25 7f bb bf
       -0.33458192063365805 -0.10740884293727013
000220 75 cc 75 d6 1b 4c 7e bf a2 a0 6e 03 36 7e db bf
       -0.007396801701690871 -0.4295783074871996
000230 17 5a a5 1c 53 44 da 3f a7 7a 76 7f 46 76 97 bf
       0.4104202060456443 -0.022912122277939286
000240 1c dd 16 e7 f4 c7 cc bf 82 07 da 89 5c 92 c2 3f
       -0.2248521927228716 0.14509159785307807
000250 5b 35 e8 c6 04 42 f2 3f 00 00 00 00 00 00 00 00
       1.141117836933822 0.0
000260 12 c6 38 32 f8 89 94 bf 4d 57 17 25 60 77 81 bf
       -0.020057561936658592 -0.008528472072537286
000270 4d 94 07 83 6d 0a a3 3f c4 65 67 75 ed 55 fe bf
       0.037188932652306585 -1.8959784113015852
000280 88 d1 33 29 12 52 f1 3f 28 79 35 e7 d3 61 f2 bf
       1.0825368508786557 -1.148883727225959
000290 00 00 00 00 00 00 00 00 fa 99 e5 f2 5f f6 e8 bf
       0.0 -0.780075048835726
0002a0 73 dd 03 5f 99 ae 7c 3f eb 3b e1 d4 84 d9 bf bf
       0.007002448183122001 -0.12441282460461849
0002b0 ce 66 11 a6 3f 69 b7 3f b8 53 bc 39 e4 af f0 3f
       0.09144971660989684 1.0429422622012066
0002c0 bb dc c8 41 b9 8e 8c 3f 00 00 00 00 00 00 00 00
       0.013944098777854177 0.0
0002d0 8a 82 69 b3 82 b4 f8 bf fd 9a a9 04 b9 e7 f5 bf
       -1.5440699585234676 -1.36907293149278
0002e0 1e 1a be 62 d0 e6 8b bf 8a 31 81 d3 e8 2a ce bf
       -0.013623836530098517 -0.23568449332595903
0002f0 fe 9d b0 80 b8 4d af bf 17 77 01 33 3b 6d 6f bf
       -0.061139836987702964 -0.003836265204923427
000300 7c 03 c7 e7 27 f1 dc bf f1 7f 25 98 7a 7c 36 3f
       -0.452218986840357 0.00034311287904209483
000310 99 08 57 03 43 22 c3 bf e5 f6 d2 30 8d 81 fa 3f
       -0.14948308623394693 1.6566287905874841
000320 ff 2e d0 25 95 53 be bf 5c 95 21 fa af cb 72 3f
       -0.11846286938833471 0.004588782701920504
000330 13 a8 13 35 01 94 d0 bf c5 5e 98 e2 73 bb e2 bf
       -0.25903349097518563 -0.5853824067771362
000340 cf 04 85 21 2a f8 b2 3f 00 00 00 00 00 00 00 00
       0.07409919088697169 0.0
000350 bd 8f 63 fb 52 4b 6c 3f 87 c1 9d a3 34 e7 d8 3f
       0.00345388610286254 0.3891116712393558
000360 00 28 35 38 a9 ee c2 bf c5 72 16 b5 e2 50 d6 bf
       -0.14790835613740683 -0.34868686374992947
000370 a4 d7 e0 6b 6c 33 c2 3f 00 00 00 00 00 00 00 00
       0.14219432132239007 0.0
000380 00 00 00 00 00 00 00 00 00 00 00 00 00 00 00 00
       0.0 0.0
000390 c7 2e 69 e2 5d 80 c0 3f 00 00 00 00 00 00 00 00
       0.12891744189470541 0.0
0003a0 28 b1 05 7c 4b 74 c2 3f 00 00 00 00 00 00 00 00
       0.14417403751156965 0.0
0003b0 01 c7 93 7f 23 b9 f7 3f e7 20 c4 30 86 fa 74 bf
       1.4826998694883857 -0.005121730977642103
0003c0 1d 1a 25 21 cf bc db 3f bb 8b fd 80 dc db b8 bf
       0.4333989928894953 -0.09710481785945906
0003d0 4d b0 f7 95 42 af e0 bf 4f 0d 34 08 8e ef 82 3f
       -0.5213940552762409 0.00924597704443522
0003e0 ad ed 0d 35 fd 57 f3 bf 5c 9b 22 58 c4 88 e4 3f
       -1.2089817116201218 0.6416951867475791
0003f0 ac 1f 71 ee 2f fb f1 bf 21 57 9a e7 71 ce c0 3f
       -1.1238250078331289 0.13130019959197006
