tcav_data/cavs/eager_disco_16/best_model/concept_3_layer_3_cav.npy (npy, 1152 bytes, 1 tensors)

array f8 [128]
000000 a1 64 10 a4 ab 8d e7 bf b7 0d 2a 50 a7 d5 c6 3f
       -0.7360437588096326 0.17839518942137797
000010 00 00 00 00 00 00 00 00 6f 73 f0 94 9b 82 de 3f
       0.0 0.4767216639027571
000020 00 00 00 00 00 00 00 00 00 00 00 00 00 00 00 00
       0.0 0.0
000030 59 83 36 be 84 a5 cb bf 45 b1 3c 61 31 b7 d7 bf
       -0.215988724591649 -0.3705562066632136
000040 b0 fc e2 eb 5c 7b e8 3f 00 00 00 00 00 00 00 00
       0.765058956829213 0.0
000050 90 c5 e2 57 71 eb e9 3f a0 79 9d 96 66 8a b6 3f
       0.8099905697364864 0.0880493276322114
000060 00 00 00 00 00 00 00 00 57 37 b8 7c af 1a f7 bf
       0.0 -1.4440150138720662
000070 00 00 00 00 00 00 00 00 a2 d1 67 99 6c bd e2 3f
       0.0 0.5856230732156755
000080 7f 18 f2 1d 27 f4 f9 bf 3f 73 24 a0 71 73 c5 bf
       -1.6221076173547144 -0.1675855667062027
000090 43 3f 53 ac 46 79 ba bf db 7d fe a9 f1 c0 b9 bf
       -0.1034130259242803 -0.10060034179922843
0000a0 90 00 ac 88 c4 95 d0 bf f0 ba 0e 59 03 c2 ea 3f
       -0.2591410956083644 0.8361832370190694
0000b0 00 00 00 00 00 00 00 00 de e8 59 47 be 99 f1 bf
       0.0 -1.1000349795490858
0000c0 7d aa eb ce f8 70 e6 bf b9 72 20 00 e8 a3 dd bf
       -0.7012905160348307 -0.4631290436971472
0000d0 15 12 85 72 18 16 c3 3f 00 00 00 00 00 00 00 00
       0.14911180106914004 0.0
0000e0 00 00 00 00 00 00 00 00 de a6 35 60 f9 e9 f8 bf
       0.0 -1.5571225889383906
0000f0 e5 f7 04 c3 f9 35 db bf 0d b9 d9 7e 2a 74 92 3f
       -0.42516941113342305 0.018021263115252362
000100 00 00 00 00 00 00 00 00 26 64 5c b4 20 8a aa 3f
       0.0 0.05183508111640149
000110 39 98 b1 3a 16 af f9 bf ac 5b d9 22 e5 8f f7 bf
       -1.60524580886114 -1.4726306306163037
000120 fc 39 a8 e1 69 b6 d8 3f c7 d3 18 87 9e e7 ef bf
       0.3861336425478894 -0.9970238340962333
000130 e6 59 ed d7 0a e9 ef bf 4e ba a6 4d 1e 38 b4 bf
       -0.9971975533797461 -0.07898129840644083
000140 00 00 00 00 00 00 00 00 00 00 00 00 00 00 00 00
       0.0 0.0
000150 ff bd bb 14 6f f5 d6 bf 06 89 4e 69 0f 80 b6 bf
       -0.3587300970529838 -0.0878915435883166
000160 69 2a 35 47 3e 4b ec bf 37 10 d7 1c c4 b3 b8 3f
       -0.8841849699759453 0.09649301246742047
000170 32 e5 ba 1d 31 15 e4 bf 7a ed 1e 8e 7d dc b7 bf
       -0.6275868969598035 -0.09320816726442685
000180 00 00 00 00 00 00 00 00 75 b4 91 5a 42 ad e3 3f
       0.0 0.6148998040131476
000190 00 00 00 00 00 00 00 00 00 00 00 00 00 00 00 00
       0.0 0.0
0001a0 88 48 0e db 9e a4 ea bf bb 49 a4 16 78 a5 bb 3f
       -0.8325952795442086 0.10799360802437878
0001b0 31 1d bd c1 d5 a7 c3 bf 00 00 00 00 00 00 00 00
       -0.15355941734217418 0.0
0001c0 37 45 35 24 a8 21 e7 3f 29 d7 6d ec d5 5e c8 3f
       0.7228584963978965 0.19039415401828677
0001d0 00 00 00 00 00 00 00 00 49 08 ec 99 54 b4 88 3f
       0.0 0.012062703082396225
0001e0 48 f1 50 ab fb 2b ec bf 44 5f 67 2a c5 ec f9 3f
       -0.8803690286654637 1.620305219306787
0001f0 00 00 00 00 00 00 00 00 c6 0c fd df fe c3 00 40
       0.0 2.0957009791469288
000200 64 97 f5 c4 72 e6 f5 3f 4a f0 0f 03 a4 60 ff 3f
       1.3687617963527936 1.961093913995699
000210 ed ce 55 07 9a 90 ec 3f bc 90 55 5b 0d 65 6c 3f
       0.8926515715852169 0.0034661541819095126
000220 a2 df 2b 98 54 03 fa bf 3d d2 c5 55 44 8b da 3f
       -1.625813097400148 0.41475017906421724
000230 24 23 bd 41 9d cd 5c bf fa a5 e7 9b 1b 2b ad bf
       -0.0017580066405164596 -0.05696951177726457
000240 f4 45 71 00 97 08 d1 bf 46 04 f3 54 b3 b0 d2 bf
       -0.26614928286753003 -0.292034943540845
000250 f7 73 92 2e 38 6c 6c bf 00 00 00 00 00 00 00 00
       -0.003469571810070789 0.0
000260 ae 2d a8 79 29 96 72 bf 90 6c 5f 8b 7a b3 c2 bf
       -0.004537736904704754 -0.1461022549181945
000270 90 17 6f d4 e5 56 e3 bf 33 62 00 47 eb e4 f1 3f
       -0.6043576382733011 1.1183884404655486
000280 2d 47 b2 f1 8a 7f af 3f 27 59 9e ab 64 da e6 3f
       0.061519948963122274 0.714159331505276
000290 00 00 00 00 00 00 00 00 cb d1 e9 14 f9 19 f6 3f
       0.0 1.3813410584381127
0002a0 78 88 1c 43 62 aa f2 3f 0d d5 ba 4f 3e a9 d3 3f
       1.1665976163426688 0.3072047976123294
0002b0 00 00 00 00 00 00 00 00 93 94 60 d0 9b 4b db bf
       0.0 -0.4264897856649636
0002c0 0b 4a 7f 47 8e 5e ad bf d8 e6 16 5f c8 91 bb bf
       -0.05736202833908884 -0.10769321748275773
0002d0 37 45 2d 82 a7 5f f0 3f ac cc 9d 3f 4b 4c d6 bf
       1.0233531079323492 -0.34840661251582605
0002e0 5c 31 34 16 23 55 c9 3f d5 93 d8 9a 60 46 aa bf
       0.19791067680524577 -0.05131818666658431
0002f0 00 00 00 00 00 00 00 00 00 00 00 00 00 00 00 00
       0.0 0.0
000300 49 bc 1d ba 56 0c f5 bf cc 57 76 02 ba e7 d3 3f
       -1.3155123968279148 0.3110184692426372
000310 b5 70 ec 2d 3e 1d b4 3f a9 bc 1d 80 b9 e5 00 c0
       0.0785712110632087 -2.112170220286846
000320 b9 20 a7 d8 60 0d d7 3f 89 75 05 37 63 19 7c bf
       0.36019154698852734 -0.006860148962315357
000330 33 a9 34 0d a8 81 8e 3f 13 bc e3 fd bd 81 d6 bf
       0.014895737555509747 -0.35166883272080546
000340 2d 04 d2 42 4e 09 7a 3f 00 00 00 00 00 00 00 00
       0.0063565308638553865 0.0
000350 d5 43 c0 53 95 d3 c6 bf 21 aa 90 5d e9 f9 a4 bf
       -0.17833201016813285 -0.04096917407180834
000360 7c 7e 9e 1f aa b8 ac 3f 39 32 77 e3 86 26 cb bf
       0.05609637866950565 -0.21211324793547862
000370 95 9f 8a 49 9b 88 00 c0 00 00 00 00 00 00 00 00
       -2.0667024369649405 0.0
000380 00 00 00 00 00 00 00 00 00 00 00 00 00 00 00 00
       0.0 0.0
000390 95 de 5e d0 dd 81 04 40 00 00 00 00 00 00 00 00
       2.5634113577796804 0.0
0003a0 8b fa 84 f7 e3 54 c2 3f 00 00 00 00 00 00 00 00
       0.1432156523314528 0.0
0003b0 80 fd 8d bc ac 36 f1 bf 00 00 00 00 00 00 00 00
       -1.0758483281532278 0.0
0003c0 c2 70 5f 6a ba 10 e0 bf ba d0 e6 e9 5d 09 c6 bf
       -0.5020420148462323 -0.17216085358598382
0003d0 c5 5b bb ed 19 26 e6 bf c5 2b 33 1f a0 bb ea bf
       -0.6921510356140678 -0.83540350049713
0003e0 0b de 3b b2 67 86 b2 3f 8b a3 ef 9f 09 d3 e1 bf
       0.07236335851109048 -0.5570114253761046
0003f0 8d 7b a1 e4 c0 e7 c6 3f 22 94 16 5f fc 66 ab bf
       0.17894755519497743 -0.05352009449715235
