tcav_data/cavs/eager_disco_16/best_model/concept_0_layer_1_cav.npy (npy, 51328 bytes, 1 tensors)

array f8 [6400]
000000 3d 64 b3 43 21 a9 89 bf 00 00 00 00 00 00 00 00
       -0.01252962100845611 0.0
000010 3a 0d d7 9d 2b 45 af bf 83 66 47 42 0a a7 b8 bf
       -0.06107460309751862 -0.09629882925164605
000020 28 bb af d9 c7 d4 83 bf 00 00 00 00 00 00 00 00
       -0.009683190661204558 0.0
000030 00 00 00 00 00 00 00 00 e2 35 d0 23 03 0a a9 bf
       0.0 -0.04890451252149909
000040 00 00 00 00 00 00 00 00 72 88 e8 51 8c f6 c4 3f
       0.0 0.16377405166082643
000050 00 00 00 00 00 00 00 00 ef ac 8d 61 fe ca b1 bf
       0.0 -0.06950368768382352
000060 00 00 00 00 00 00 00 00 a6 77 4f 65 95 c4 58 bf
       0.0 -0.0015117129271326828
000070 18 50 43 4d cf e3 a6 bf c1 36 fd 56 ac 63 9b bf
       -0.04470680063391813 -0.026747410592455226
000080 00 00 00 00 00 00 00 00 f8 0c 75 85 79 3c b8 bf
       0.0 -0.09467277057870038
000090 00 00 00 00 00 00 00 00 5b 8e e6 26 ca c7 c5 3f
       0.0 0.17015959643787223
0000a0 00 00 00 00 00 00 00 00 ae 13 a0 41 67 43 bb 3f
       0.0 0.10649724342518027
0000b0 56 0f 7d 9a 7c 2a 47 bf bb 3c 31 d2 54 88 c6 3f
       -0.0007069691100487312 0.1760355020837546
0000c0 cf 72 a8 d7 a0 12 9a 3f 00 00 00 00 00 00 00 00
       0.02546168628952011 0.0
0000d0 c1 21 a6 bf 33 f6 70 bf ab 50 8e 89 eb e2 5f bf
       -0.00414104666050047 -0.0019461918038575037
0000e0 00 00 00 00 00 00 00 00 00 00 00 00 00 00 00 00
       0.0 0.0
0000f0 d2 be 6b 7f 3f b9 d0 bf ef f2 73 00 37 15 cb 3f
       -0.2613066429466758 0.21158492586246022
000100 00 00 00 00 00 00 00 00 e8 a8 b6 c5 5d 57 c5 bf
       0.0 -0.16672870782833304
000110 00 00 00 00 00 00 00 00 97 42 ed 22 c9 47 bd bf
       0.0 -0.11437661268906606
000120 4d 1d 3f b3 ce a9 b7 3f c7 e0 f1 75 a3 4c aa bf
       0.09243480564247371 -0.051365955493510244
000130 86 ca 36 b0 02 1d d9 3f 5e 48 eb 40 80 8a a8 3f
       0.3923956604805102 0.0479316787001529
000140 26 5f b5 00 e5 d5 99 3f 7b 70 d3 03 a6 37 d0 bf
       0.02523000542473066 -0.25339651464106056
000150 8e 5b ce 22 76 01 e4 3f 00 00 00 00 00 00 00 00
       0.6251784019285525 0.0
000160 3b 1e 97 17 6f 00 bf bf 43 c2 2d b3 13 bf a0 3f
       -0.12110037160811597 0.03270780145874543
000170 bf a8 b8 35 ba 62 72 3f de e8 82 37 a4 e7 fe be
       0.004488685018751492 -2.947316122068547e-05
000180 b3 32 c9 da f5 05 99 bf 63 c2 34 43 b2 96 e5 3f
       -0.024436799505837836 0.6746455490702598
000190 6d c3 f9 6e 46 61 89 bf 13 f9 99 e2 6e de ae 3f
       -0.012392568837840756 0.06029078022128167
0001a0 28 23 06 cd 24 f2 7b bf a0 7a f1 d6 6a cc c6 3f
       -0.006822723153512546 0.17811332221295562
0001b0 f6 5a 28 ab 43 db a2 bf 00 00 00 00 00 00 00 00
       -0.03682910408331523 0.0
0001c0 51 d5 5b be fd c5 bd bf 44 52 7b 7d b8 38 94 3f
       -0.11630235574178484 0.01974762216453231
0001d0 c7 61 70 6f b0 12 03 c0 3d 3d cd 81 2c 56 e2 bf
       -2.3841255861445663 -0.573019269484497
0001e0 09 52 c8 ba 9c b2 b2 3f 3e 66 92 f8 26 32 df 3f
       0.07303790626640007 0.4874360492191022
0001f0 f4 f6 23 d2 ba 40 c2 bf 5c bf 43 00 e0 67 96 bf
       -0.14260039578214612 -0.021880626693870794
000200 c0 0a 8b b2 01 2a 9d 3f 0f 00 41 29 27 80 a9 bf
       0.028480555078895575 -0.04980585459316
000210 1a 68 39 90 c8 e7 c3 3f fe 76 06 67 e5 a4 63 bf
       0.1555109695644326 -0.0023979645267918617
000220 be f0 57 96 2f 45 89 3f 00 00 00 00 00 00 00 00
       0.012338992858524352 0.0
000230 f4 0f d2 cf e8 55 a4 bf 83 bb 32 52 c9 62 a3 bf
       -0.039717936867447096 -0.03786305549998927
000240 9f 94 13 5c 57 ad 87 3f e1 c8 19 6d 01 4b a2 3f
       0.011561090943766948 0.03572849709316173
000250 00 00 00 00 00 00 00 00 f8 83 a8 d8 40 e0 9f 3f
       0.0 0.031128895972987153
000260 92 8d 81 23 9b 65 85 3f 2f 26 a9 87 90 03 bc 3f
       0.010447704335269124 0.10942939102201231
000270 c8 a0 84 05 68 61 6a 3f fb 88 c5 a9 19 98 ac bf
       0.003220275084590527 -0.055847932790827635
000280 48 06 a1 ff 57 ba cd bf fe 23 94 cf 23 bc 6d bf
       -0.2322492597759711 -0.0036297511511560457
000290 00 00 00 00 00 00 00 00 00 00 00 00 00 00 00 00
       0.0 0.0
0002a0 00 00 00 00 00 00 00 00 5c d1 36 56 4b 55 97 bf
       0.0 -0.02278630937299063
0002b0 a3 e1 25 b0 25 65 9f 3f c3 01 f3 81 eb 19 c0 3f
       0.03065928351995385 0.12579101414850244
0002c0 85 b3 df 04 5d 31 cb 3f b8 b9 ca d3 5e 2c 80 3f
       0.21244395006160857 0.007897129858375304
0002d0 d3 d3 26 22 d9 6a b2 bf d6 9a e2 89 07 48 c4 3f
       -0.0719428738000965 0.158448164297815
0002e0 00 00 00 00 00 00 00 00 00 00 00 00 00 00 00 00
       0.0 0.0
0002f0 49 82 a5 cb dd 19 b8 bf 02 5b 11 c9 38 78 cb 3f
       -0.09414468976820801 0.21460637872470306
000300 00 00 00 00 00 00 00 00 ba 0d 5b 96 eb 94 a1 bf
       0.0 -0.034339296440090775
000310 80 98 d7 fb 70 8a 74 3f 47 65 5b dd 5c d5 be 3f
       0.005014840452963409 0.12044315723632791
000320 8e a1 43 1e 2f 3c d3 3f 2e 10 61 53 ff 25 d2 3f
       0.3005483432339354 0.28356917517180846
000330 6f 8f 15 8d 05 22 d9 3f bb 3f 70 77 fd 89 93 3f
       0.3927015188003144 0.019081077971406773
000340 c4 c0 33 0f 2b ca 72 bf f9 fc 02 8e 52 b7 94 bf
       -0.004587333870617442 -0.020230569760994552
000350 ff dc 88 78 0c 60 a4 bf 29 cc 76 5a 21 68 8a bf
       -0.03979529353494548 -0.012893925259822652
000360 6f 3a d9 a3 5a e5 c8 bf 08 a6 91 bd 0e 2b d6 3f
       -0.1944993305246103 0.3463780261286904
000370 5b 53 5c f0 f9 0a b4 3f 35 dd b9 2a e6 a6 bf bf
       0.0782924854104982 -0.12364042800060278
000380 02 ab b0 60 22 db ad 3f c2 d5 c2 ad c4 54 f2 3f
       0.05831248693751513 1.1456953799764595
000390 67 10 c2 99 ed 93 94 3f 56 3f 85 ba 68 bd cb 3f
       0.020095551023146998 0.21671780688711334
0003a0 00 00 00 00 00 00 00 00 3f 04 44 20 5c 01 c2 3f
       0.0 0.14066649985764632
0003b0 a7 8c 0a 8a 97 2a 90 bf ed f3 84 59 3a 5f 7f bf
       -0.015787475395552388 -0.0076591758045738536
0003c0 63 30 3c bc 0b 84 a6 bf 8b b2 c2 9b 8d 23 8c bf
       -0.04397617981712256 -0.01373968726724086
0003d0 c3 69 9b a6 f1 ef fa bf 73 84 a0 c2 1d 8b ce bf
       -1.6835800655450022 -0.23862049105904112
0003e0 34 82 80 91 9b b7 a6 bf c0 8b d1 06 f8 46 cb 3f
       -0.044369565497849456 0.2131032975476881
0003f0 1d a6 95 cf 79 ca b5 bf d9 35 83 0d cb 15 42 bf
       -0.08512078588469092 -0.0005519143551510577
000400 7b 62 4e 5b 04 41 ad bf 00 00 00 00 00 00 00 00
       -0.05713666548326032 0.0
000410 16 30 9f e1 56 5b b4 3f d0 63 ba 6d 8b 44 a9 bf
       0.0795187283358135 -0.04935107912496728
000420 48 f2 4b 41 e2 03 d3 bf ce 6e ff ab ed bd 99 3f
       -0.29711204887988574 0.025138581869994785
000430 53 22 c4 71 f7 ec a1 bf 52 6e 02 b7 1c 67 b7 bf
       -0.03501103652712758 -0.09141711681370993
000440 00 00 00 00 00 00 00 00 f5 38 d5 d3 90 fc ce 3f
       0.0 0.24208269446757638
000450 67 f7 cc a4 49 2b ab 3f d1 cb fd 5b 73 35 d4 3f
       0.053064633719698766 0.315762367091506
000460 00 00 00 00 00 00 00 00 36 23 10 fd 04 99 93 bf
       0.0 -0.019138410516492864
000470 a6 8c e0 a6 04 c2 b6 bf 78 07 26 00 c1 ca d8 3f
       -0.08889798235081744 0.38737511648661593
000480 33 be 09 53 46 17 c0 bf 37 89 49 9a 61 7e c3 3f
       -0.12571028761475275 0.15229434999043587
000490 42 ca d1 ef c3 f7 7e 3f 79 32 49 55 d4 a0 ab 3f
       0.007560506227593468 0.05396140614593476
0004a0 71 b7 f5 5e 05 65 62 3f c7 90 2e 94 38 88 63 3f
       0.0022454361821279624 0.002384291177309181
0004b0 5a be cf f6 a0 57 5e bf b5 c1 5e 67 6f b4 92 3f
       -0.0018519470133887745 0.018266430553639263
0004c0 11 f2 94 86 d9 71 b3 3f 90 1c 17 91 15 2a 9b bf
       0.07595595870675022 -0.026527726154907116
0004d0 a1 c4 68 fe 5c 77 be bf 69 72 4a 33 ba 61 b7 bf
       -0.11900883876002634 -0.09133495094506262
0004e0 00 00 00 00 00 00 00 00 6a ed ae b7 2c 36 56 bf
       0.0 -0.001355689687200757
0004f0 a4 e8 29 83 ca 5a e2 bf 1a 9b d1 ff 23 a3 e0 bf
       -0.5735828935423979 -0.5199146267376336
000500 00 00 00 00 00 00 00 00 a6 c4 27 18 53 f1 c8 bf
       0.0 -0.19486464194736647
000510 d1 85 5d 7b bd c2 a6 bf 69 a1 94 ac 2f 6e d3 3f
       -0.04445449953960757 0.30360023358891525
000520 7c 2a 42 54 11 7a d3 3f 79 4d 15 56 7b bf d4 3f
       0.30432542065015133 0.3241871205002194
000530 5d ea 3d 5d 0e 3f e3 3f 13 a7 8b 02 e4 c7 62 3f
       0.6014472790842081 0.0022925809210975283
000540 00 00 00 00 00 00 00 00 01 b9 9e f1 55 12 ba 3f
       0.0 0.10184228085447346
000550 e8 8f 6c e7 3d 50 c0 3f 0a d2 26 ec 03 89 57 bf
       0.12744878578189334 -0.0014364755921693084
000560 09 2e d9 50 f5 f2 c5 bf 29 d8 cd f7 e2 2f ab 3f
       -0.17147699783014073 0.053099720716020045
000570 17 44 2c d5 e2 7c d0 3f 1f e5 2a 09 08 5b bb 3f
       0.25762244050662403 0.10685777877633428
000580 00 a1 81 04 f9 49 88 3f 42 48 e6 cc e0 8b f3 3f
       0.011859841775916369 1.2216499332321438
000590 e5 42 cf a5 85 f5 7b bf e7 ef 1b 67 e2 9a cc 3f
       -0.006825944958976681 0.2234766963446184
0005a0 00 00 00 00 00 00 00 00 28 7a 81 1c 12 29 bb 3f
       0.0 0.10609543987218528
0005b0 6f fd b4 da 6f ff 82 3f ad a1 6f fe 81 28 b7 bf
       0.009276269781024664 -0.09046184980218781
0005c0 7a 22 4d 21 36 ee 94 bf 00 00 00 00 00 00 00 00
       -0.020439954550314422 0.0
0005d0 06 f6 8c 49 27 0c f8 bf a5 44 13 3a 6e 30 cf bf
       -1.5029671547957846 -0.2436654838152538
0005e0 53 da 7f c6 01 f0 6c 3f 06 10 90 be d6 fe d0 3f
       0.003532412974887303 0.26555412873881357
0005f0 de 88 a1 10 a8 d9 a1 bf 30 3d 06 9e 4d c6 46 bf
       -0.03486371233954498 -0.000695026301444834
000600 91 a3 59 46 8c 07 c8 3f 64 74 a0 da e2 40 ce 3f
       0.1877303451067545 0.23635516810546442
000610 04 77 00 24 71 25 c8 3f d8 39 46 9e 50 b1 75 3f
       0.18864263780499624 0.0052960538054222725
000620 92 cf d0 c3 59 59 d5 bf 9a 25 f5 02 5a cd b7 bf
       -0.33357853052734143 -0.09297716686446336
000630 ef 0f 76 d2 ab 1f 45 bf bf a0 a5 84 c8 97 ac bf
       -0.0006446446395078613 -0.055845514480837626
000640 00 00 00 00 00 00 00 00 bf 51 4e 0b 72 8d d9 3f
       0.0 0.3992581472787399
000650 92 62 0f dd d6 68 a3 3f 20 eb 35 ca 82 39 d2 3f
       0.0379092354630234 0.2847601866448475
000660 00 00 00 00 00 00 00 00 84 fe 15 4c b5 c0 ae 3f
       0.0 0.06006399682791844
000670 8a 94 2b 60 ba e3 af 3f a2 80 89 29 38 dc d8 3f
       0.06228430198624675 0.3884411244998863
000680 3e 03 af c3 27 a0 a7 3f 95 29 e0 f3 fd 28 bf bf
       0.04614376319614742 -0.12171923831934912
000690 00 00 00 00 00 00 00 00 fb 4e 19 2f d2 a8 b7 bf
       0.0 -0.09241975450396105
0006a0 00 00 00 00 00 00 00 00 0e 73 46 84 d8 4c cd 3f
       0.0 0.22890764673947966
0006b0 ba 70 c3 88 d8 43 8c 3f 8f e8 3a b5 d7 d5 97 3f
       0.01380128066414731 0.023276682316215654
0006c0 90 09 67 cc 42 75 98 bf 1f 6a cd 21 09 51 fc 3e
       -0.023884814954507727 2.7004762262231482e-05
0006d0 de 1a 50 04 9f e3 88 bf 41 1d e0 e8 e8 17 c2 3f
       -0.012152902907485549 0.14135466929313092
0006e0 00 00 00 00 00 00 00 00 6f e0 03 0f 96 57 b8 bf
       0.0 -0.0950864588411393
0006f0 ad 58 f0 dd 9c f2 df bf 4c 9c 9f d6 91 55 de bf
       -0.4991829078075039 -0.47397275885891044
000700 00 00 00 00 00 00 00 00 a4 7e a5 6a 54 b0 c6 bf
       0.0 -0.1772561569914518
000710 eb d0 cd 0a c5 60 67 3f c5 c4 d3 d9 7b cd d0 3f
       0.0028537605743911196 0.262541735383888
000720 1f 33 0c f0 f0 80 bf 3f 11 a0 a3 09 e5 0d df 3f
       0.12306123600519613 0.48522306386303266
000730 c4 48 54 35 cc 18 e7 3f 4b 60 d3 92 55 51 91 3f
       0.7217770616137149 0.016911828123596966
000740 00 00 00 00 00 00 00 00 23 10 8c 49 08 8d b8 bf
       0.0 -0.09590198321899428
000750 cf 3f 47 39 c4 24 be 3f 48 53 e5 8a 84 ad b0 3f
       0.11774851225277348 0.06514767066012184
000760 ef 8c 0f 8c 29 a0 c3 bf 0f a2 71 6d f7 6d ad 3f
       -0.15332526530173804 0.057479602918480414
000770 fa 44 10 85 25 31 c1 3f 69 f7 11 51 b8 4b c2 bf
       0.13431233403438353 -0.1429357906198974
000780 00 00 00 00 00 00 00 00 88 e9 a3 d7 41 18 f0 3f
       0.0 1.0059221671532175
000790 e2 a1 65 3e 8a ec 80 bf 12 21 f2 38 2e 92 a4 3f
       -0.008263664273457875 0.04017776913775796
0007a0 42 34 e1 fc 5e 2a 89 bf 7c fe ab 8f 76 54 c3 3f
       -0.012287847606922257 0.15101511016108649
0007b0 68 9b 10 06 55 c4 a3 bf 83 fe c1 c9 ed f5 86 3f
       -0.0386072702315719 0.01121125957456504
0007c0 96 94 df da 29 3e b6 bf 00 00 00 00 00 00 00 00
       -0.08688603967273631 0.0
0007d0 b1 ac b7 cd f4 1f fc bf d9 73 c3 08 47 a5 d0 bf
       -1.7578018222655312 -0.26008773666199897
0007e0 ea 4f 60 10 67 cf a3 3f d8 6b d8 0c ef ee d8 3f
       0.03869173121361753 0.38958336119111214
0007f0 5a c4 69 89 12 4c 8d 3f 41 aa 90 07 88 93 ab 3f
       0.014305252855793583 0.05385994999263178
