tcav_data/cavs/eager_disco_16/best_model/concept_3_layer_1_cav.npy (npy, 51328 bytes, 1 tensors)

array f8 [6400]
0	0x3fae75c1163f07f8	0.059492143598177394
1	0x3f9b66b5773b1512	0.026758990671415246
2	0x3fb83bd22ecf3ecb	0.09466279642878843
3	0xbf9955f2c0cf9ef4	-0.02474192907166546
4	0x3fe01c19991d6ada	0.5034301748777026
5	0x3f87170721ca18f8	0.0112743909060211
6	0xbfa93682807fc983	-0.049244001565869965
7	0xbf75e37c039d5b75	-0.005343899183421698
8	0x0000000000000000	0.0
9	0x3fac8774d96056b0	0.05572095063705029
10	0xbf6318964ba67738	-0.0023310599764973204
11	0x3fbcfde9dca5d81f	0.11324941288862121
12	0x3f8064992f02aa44	0.008004376170295598
13	0xbf6fdf7675627c7c	-0.003890735019993095
14	0xbfbdffd5028d570f	-0.11718493759448399
15	0xbf920b5f1c9d0e72	-0.017621503945760293
16	0x3f9761ed8b340194	0.022834502812658267
17	0x3fcbe3baff461e33	0.21788728203340355
18	0x0000000000000000	0.0
19	0xbf9eef05e8825886	-0.03020867568610488
20	0x0000000000000000	0.0
21	0x0000000000000000	0.0
22	0xbf91d571a10637b1	-0.017415786221640143
23	0x3f69c7127efd050a	0.0031466828585570194
24	0x3fae43160415c68f	0.05910557556024997
25	0x0000000000000000	0.0
26	0xbf7d721e70f7dc15	-0.007188910399682964
27	0x0000000000000000	0.0
28	0x0000000000000000	0.0
29	0x0000000000000000	0.0
30	0x3fc9c1c6d6321d26	0.20122609576012812
31	0xbf78d8bc79234cde	-0.006066070769708191
32	0x0000000000000000	0.0
33	0xbfc2167f22e6b20a	-0.14131154255063932
34	0x3f9018aad1e006d5	0.015719098148116856
35	0xbfc8799068ce31e2	-0.19120984189466045
36	0x3fd76309b3cda20c	0.36541979369079125
37	0xbfd30dd6580eff98	-0.2977195606181282
38	0x3fdf69b1c53251cd	0.4908260751483596
39	0xbf52907b0f68d43d	-0.0011330796966266953
40	0x0000000000000000	0.0
41	0x3fa7a69733efbd38	0.04619286068907019
42	0x3ff12f6b82a87dc2	1.0740771392664645
43	0x0000000000000000	0.0
44	0xbfbb5c9e994ab31e	-0.10688201181865195
45	0x3fc447beeac19a4a	0.15843950712879212
46	0xbf95b573ad1a95c5	-0.021199996414585493
47	0xbfa7ca8201a2a4b8	-0.04646688718759989
48	0x3f74ee9e62a9a8bb	0.00511037701890354
49	0x3fe6d4aa361b7a05	0.7134600693496514
50	0x3f9f5b51f690e4d3	0.030621796297258207
51	0x3fd03835af46a8d0	0.2534307681732004
52	0xbf94218bcd1f49ab	-0.01965921821085607
53	0x3fb48628a9ab2ac3	0.08017210142422031
54	0xbf96285d423d0ec8	-0.02163835255420457
55	0xbfb76141aa4b6a23	-0.0913277664907715
56	0xbfc213a5204932de	-0.14122451855145973
57	0x3fb6a6684c919432	0.08847667569496379
58	0xc0009aef1a8873f2	-2.07565136650964
59	0xbfe0de93bec58d38	-0.5271700597772115
60	0xbfb8d79062246eb1	-0.0970392455678233
61	0x3fca21898303316e	0.20414847275823028
62	0x3fa5e7c3e8d5fedb	0.042783853695252914
63	0x3f9c67aded151c6e	0.027739255519261645
64	0x3fc0bab2e88b8ea4	0.13069759707206174
65	0x3fc459d939b7f182	0.15899195974624197
66	0x3fc8799f04e179ac	0.19121158350294587
67	0xbf4043cb9421116c	-0.0004963630710866202
68	0x3fab6f4575eb0fcd	0.05358330788069985
69	0x0000000000000000	0.0
70	0xbfbd28b6e745c543	-0.11390250345518375
71	0xbf9b27d5ab1575ab	-0.026519144599083038
72	0x0000000000000000	0.0
73	0x3fbefda11b8b1fcf	0.12105757639358149
74	0x3f998c458000e7bd	0.024949155748096297
75	0x3fd3f3687f35f058	0.3117314569751719
76	0x3f639dbca0a088b0	0.002394550717341813
77	0x3fc38ea334df4aef	0.1527904518285008
78	0xbf90f0dc4942a3f5	-0.01654380986352418
79	0xbf7b57f1884d7f38	-0.006675666318954936
80	0x3fb62aca30d396e1	0.08659042064717994
81	0xbfb3dd75881a11d4	-0.07759794781492896
82	0x0000000000000000	0.0
83	0xbfc00b865c6eda3d	-0.12535171044665275
84	0x0000000000000000	0.0
85	0x3fb1f8e62a5ac79b	0.07020414861724904
86	0xbf818af61e25d119	-0.008565829081569153
87	0x3fbe4823ce700c00	0.11828826704008577
88	0xbfc9ddda92a14e39	-0.20208294067070812
89	0x0000000000000000	0.0
90	0xbfad94ce2c1b5ea3	-0.05777591980375731
91	0x3fabf2666b30af79	0.054583740792025055
92	0x0000000000000000	0.0
93	0x3fa22c10231c3fbc	0.03549242428391561
94	0x3fbf6e17f1b0babc	0.12277364397662444
95	0x3f21d9adacfe2409	0.00013618702950804498
96	0x0000000000000000	0.0
97	0xbfd3c75a6956f3cf	-0.3090425518710704
98	0x0000000000000000	0.0
99	0x3fe46b2bce02792f	0.6380824111581996
100	0x3fe1303e9adc45ba	0.537139227353854
101	0x3fcb16bc847b24d5	0.21163135975647288
102	0x3fe7b9f55537b010	0.7414499916462791
103	0x3fb8db4c1b1f4fa2	0.09709621107259506
104	0x0000000000000000	0.0
105	0xbfa7efd973b78667	-0.0467517808681464
106	0x3fb4a4ae75010650	0.08063783985655815
107	0x3facef2a1f1927af	0.056512180610823186
108	0xbfb07315d60f0f70	-0.06425606227918279
109	0x3faab01b6531ffb4	0.05212483988088881
110	0xbfd72f4b572b39dc	-0.36226161491950193
111	0xbfc568367f1bdba8	-0.1672428246162927
112	0x3fa246537274984a	0.03569279453431358
113	0x3ff0c6e0e8d537e9	1.0485543341669603
114	0xbfa4c0ee202bc767	-0.040534440447926916
115	0x3fd25b1b07656144	0.28681064340846185
116	0x3fa49b137d385d65	0.0402456369740161
117	0xbfd44652de242c33	-0.31679221814619324
118	0xbfbd06d4c3abedbe	-0.11338548447741112
119	0x3f8012f04b39ab5d	0.007848622604077421
120	0xbfa1b6fcfb482a58	-0.034599214242992005
121	0x0000000000000000	0.0
122	0xbff6fc5c480cb0f7	-1.4366114439426931
123	0xbfcd1d2a00fb63a3	-0.22745251701306043
124	0xbfbb8a81a0960f39	-0.1075821892791823
125	0x3fd020851fd4e54a	0.2519848643165302
126	0x3fc06800954c5c74	0.12817389764743192
127	0x3fc3b9240b24bd2d	0.15408754867665078
128	0xbf9dd6e88a33461f	-0.029140122828556266
129	0x3fb6c9f34c828038	0.08901901834406167
130	0xbfc7d48c243505e3	-0.18617393272329172
131	0xbfb414ce5ab0188b	-0.07844247545298992
132	0xbfc2ba60c57f57c0	-0.14631280558995563
133	0x3fc644f0fc353127	0.17397892298539228
134	0xbf3b858b8bf18f5b	-0.00041994721318005184
135	0xbfa9976d1bef69d9	-0.04998341527944534
136	0x3f87e48d653b4786	0.011666397716371579
137	0x3fbefb644cbba0dc	0.12102343438494095
138	0x0000000000000000	0.0
139	0xbf98062f5bc21938	-0.023461093879199896
140	0x3f6dfef911d81632	0.003661619629158585
141	0xbfb1523470d83ac3	-0.06766059641834503
142	0x3fb4d5d76c7381b5	0.08138796231970143
143	0x3fc5fe0da8612104	0.171815592972287
144	0x3fb2679bf7a9aa99	0.07189345165685736
145	0x3fa0983b2bf26638	0.03241143142186015
146	0x3fbe2a147825ac64	0.1178295892074615
147	0xbf94f7a87735cefd	-0.020475990558636237
148	0x3f91b8d98464a1fe	0.01730670805514655
149	0x3fb8fd1afc232ea5	0.09761208205889689
150	0xbf996001bcb22c39	-0.024780299322213237
151	0x3fc263f158152f40	0.14367501068988453
152	0xbf658d270a4ee0cf	-0.002630783319968889
153	0x3fa68cca07362477	0.0440428861430257
154	0xbf956d6d16981eb6	-0.02092524004367987
155	0xbf72ff637dfd9289	-0.004638088837826467
156	0x0000000000000000	0.0
157	0x0000000000000000	0.0
158	0x3fdc7551f354e809	0.4446606518064305
159	0xbfe0909796c9e1f0	-0.5176504082765501
160	0x0000000000000000	0.0
161	0xbfb0b86f99b39378	-0.06531426908948201
162	0x3fa2212698e225eb	0.03540917030575116
163	0x3fe11f9e4f83ac16	0.5351096680655043
164	0x3fda27f0dbefee0c	0.408687796385238
165	0x3fdd729ef9b444c3	0.4601209105031325
166	0x3fd0d4dbdc8b2c1e	0.26299187219109565
167	0x3f967727b6d828a3	0.021938915762839028
168	0x0000000000000000	0.0
169	0x3fcc2385e4ca1cbd	0.21983407660829882
170	0x3f9decccea9b1fd0	0.029223634547434874
171	0xbf994d6dd713745b	-0.024709430935093795
172	0xbfd33a5a9263d3cd	-0.3004366330708848
173	0xbfa0d542bc002e92	-0.03287704987459707
174	0xbfa1e3bf30c43179	-0.03494069547932361
175	0xbf99866dd0c0bff4	-0.024926868311183584
176	0x0000000000000000	0.0
177	0xbfd5520c0f619d4d	-0.33313275816040716
178	0x3f942c469d63f6ae	0.019700148922302922
179	0x3fb4390ae40d120a	0.07899540012028453
180	0x3f8917a5f732e21a	0.012252136808784054
181	0x3f78aa97cbaa7779	0.006022065116352831
182	0x3fc0eb5c8aa1a693	0.1321826626693122
183	0xbfbd4f8bf855ff70	-0.11449503720177545
184	0xbfa63106e58c931b	-0.043342795869000215
185	0x3fb1d3034545ba9a	0.06962604943485431
186	0xbffabe2979233647	-1.6714262706695011
187	0xbfd934b246f908c3	-0.39384133273064154
188	0x3fbc1338df536a86	0.10966830684939496
189	0x3fb031f086f9bac8	0.0632620172052426
190	0x3fc0c99b6a92ca8b	0.13115256027011343
191	0x3fadf69d0f94eeea	0.0585221368332592
192	0xbfcfdcb8443ad66f	-0.2489233334687699
193	0x3fb48d5e18d97b82	0.08028209788015597
194	0xbfbe680de73cf2e1	-0.11877524276219333
195	0xbfaac214cc87d6f7	-0.05226197239600865
196	0xbfc359b3046ae763	-0.15117490497305672
197	0xbf7d3868f3135494	-0.007133874854123996
198	0xbfacc36d6f69cb29	-0.05617849335694409
199	0xbfa180edb56a2710	-0.03418677176985174
200	0x3f84867cfc5e6328	0.010022140933686766
201	0x3fda12f45ab1130c	0.4074068914090254
202	0x0000000000000000	0.0
203	0xbf9bf6cbef4e1be3	-0.027308641892456974
204	0xbfa56c731d586d87	-0.041843030292706244
205	0xbfb0d2e50d196501	-0.06571799821667314
206	0xbfb1d0ff61ce1ac6	-0.06959530008144119
207	0x3fc7edef83bfed9d	0.1869487183865716
208	0x3fcf3b412b698c9b	0.2439958059286241
209	0x3fd0d1fcc891b684	0.26281661593279915
210	0xbf7addb9888810c2	-0.006559109439425894
211	0xbfcc307cdecb77f9	-0.22022972944881739
212	0x3fc68da97d2512e2	0.17619818316065677
213	0x3f91bf8b66644a94	0.01733224689912534
214	0xbfb92c8580c2afc7	-0.09833559411589397
215	0xbfc1558a9791c473	-0.1354230156025867
216	0x3fb8730fdd66a590	0.09550570636078803
217	0xbfa6f6345b7a651c	-0.04484714142490473
218	0xbfa827c044f83d54	-0.047178276461745355
219	0x3fa510babeb9a778	0.041143260747801
220	0xbf7b2979e23dcbbf	-0.006631351574344301
221	0x0000000000000000	0.0
222	0x3fd549374b089796	0.3325937493085517
223	0xbfb51dc84c61eea6	-0.08248569359596533
224	0x0000000000000000	0.0
225	0xbfc2ae405adb80e1	-0.14594273029707153
226	0x3fbc9920985a448f	0.11171153754755124
227	0x3f65439b567a4f3c	0.0025957139913063403
228	0x3fc19d6d6e3a929d	0.13761680490747077
229	0xbfb7f52fe21bbc68	-0.09358500738356812
230	0x3fdb40124aadfa82	0.4257856110852246
231	0x3fa54c234ee1a10c	0.0415965112486579
232	0x0000000000000000	0.0
233	0x3fc3a3afa7941a6a	0.15343280489487948
234	0x3fb0ecf8cf4ebcf3	0.0661159044382094
235	0xbf8ff18aece6f6e2	-0.015597424845391786
236	0xbfd0c0951f084a85	-0.26175430326944876
237	0x3fb0f2178a3465bf	0.06619403003823886
238	0x3fb428485ce6c9e7	0.07873966472724413
239	0xbfd7cf395f572079	-0.372022955995369
240	0x0000000000000000	0.0
241	0xbfe1f516c59e6ad6	-0.5611680850737126
242	0xbf851a1081c3bed9	-0.010303620300390491
243	0x3fad886dd90fef38	0.05768149637876124
244	0x0000000000000000	0.0
245	0xbfcc52e81d40fd72	-0.22128011158381927
246	0x3fd3a9a88d9c2124	0.30723012761201773
247	0x0000000000000000	0.0
248	0xbf8ef6e6bdeb7d63	-0.015119364424605214
249	0xbf88ed3f87249f52	-0.012171264945734759
250	0xbfecaa817c151269	-0.8958136962397251
251	0xbfdcde7bc5958c36	-0.45107931418732805
252	0xbfb7a49da22d03dc	-0.09235558709498498
253	0xbfc20b59a84fe5c7	-0.14097138136257412
254	0x3fcf53f7412dce88	0.24474993403019973
255	0xbf8abf9402752e92	-0.013060718846325235
