tcav_data/cavs/eager_disco_16/best_model/concept_0_layer_0_cav.npy (npy, 25728 bytes, 1 tensors)

array f8 [3200]
0	0xbf7bd651ad2ac551	-0.006796187447137684
1	0x3fb242e2a18663f9	0.07133308833580533
2	0x3fd7b53a4ce72948	0.3704362631803133
3	0x3fb22e530e6eabd7	0.07101935484267528
4	0x0000000000000000	0.0
5	0xbfb7549fda8d89ad	-0.09113501630557748
6	0x3f929887f1df61d8	0.018159984719973682
7	0xbf780182aa844987	-0.005860815443400453
8	0xbfce26b90433c74f	-0.23555672364414668
9	0x0000000000000000	0.0
10	0xbfb7512b398f8d64	-0.09108228831569459
11	0xbfbff5f0f3de71e0	-0.12484651521521739
12	0xbf7c53fdd8071d69	-0.006916038110325353
13	0x3fe5ecf9b6d1d868	0.6851776667306355
14	0xbf98d3db682e53de	-0.02424567054147874
15	0x3fdfbefc00583592	0.496031761490337
16	0x3f92df5c9d1d39ff	0.01843018254231232
17	0x3fc16526251d0e06	0.1358993226259459
18	0xbfdda5606f84e75c	-0.46321879282515055
19	0x3fb9e6ff122d2a71	0.10118097490082235
20	0x0000000000000000	0.0
21	0x3fbdd1a313580bca	0.11648005697502054
22	0xbfd2268cc3a4847d	-0.28360289674498756
23	0xbfd9d84bc40abd24	-0.4038266577217249
24	0x3f9d235d1ec0223f	0.028455214502203893
25	0x3fdc5be630f6e316	0.4431090810935968
26	0x0000000000000000	0.0
27	0x3fd3e918620488a7	0.3111020047382546
28	0x3fc5ccdd601ca37a	0.17031447594606758
29	0x0000000000000000	0.0
30	0xbfc657267331025b	-0.1745346128900732
31	0x0000000000000000	0.0
32	0xbf79f0d25dd87eaf	-0.006333181137534601
33	0x3fcebbe2043dbd35	0.24010873038376138
34	0x3fd21baba2a56a08	0.28293887027180675
35	0xbfb930d735f24900	-0.09840149943400789
36	0xbfd94ef9558136c8	-0.3954451880461929
37	0x3fdbd739737a2472	0.4350112559992062
38	0x3fcb7450ff835205	0.21448719478816272
39	0xbf8b7003d358ae2e	-0.01339724529960681
40	0xbfd7bcc7fb6b51ca	-0.37089728882463346
41	0xbfab1b30102149c1	-0.052941801041601184
42	0xbf99591c621862e3	-0.02475399349904962
43	0xbfdc57a57d0f3583	-0.4428495141299537
44	0x0000000000000000	0.0
45	0x3fe11c636369e3f5	0.5347153608009864
46	0xbf31014aaf7411c8	-0.00025947640774884014
47	0x3fbacbe95b0d6e1a	0.10467394326172333
48	0xbfbdd9a651d01812	-0.11660232064613776
49	0x3fdab848486232d6	0.41749770230016503
50	0xbfe1156d2d1f37eb	-0.5338655358589198
51	0x3fb8e5f5d15dcdde	0.09725891458020139
52	0xbfa54a85f00c0495	-0.04158419184933241
53	0x3fe7f346afb32263	0.7484467918048491
54	0xbfc6a0d17e4af893	-0.17678278605120976
55	0xbfdf4c006ad2fb18	-0.4890137713627367
56	0xbfbc03e4a9738595	-0.10943440567964154
57	0x3fb49f8da3a3cce8	0.08055958981622136
58	0xbfee48f58e0471cd	-0.9464061521317092
59	0x3fd7c22ec08ddbf4	0.37122696689715373
60	0x3fda1fe93b54f193	0.40819769662973576
61	0x3f7b0535fe332e45	0.006596766386063606
62	0xbf89bf9d71c3bec4	-0.012572507891007396
63	0xbfb504cde1914ee9	-0.08210455662748085
64	0xbf533dc8616c184a	-0.0011743981210101833
65	0x3fd2d45d161ebc24	0.2942116466537661
66	0x3fd46685fb62d90f	0.31875752973009325
67	0xbf98c7c23ddf3acd	-0.024199519182554852
68	0xbfd4b3c1edd52e64	-0.3234715292535155
69	0x3fb1f05d7fdb60aa	0.07007393237597861
70	0x3fbd7289f2986a8d	0.11502897427309673
71	0xbfa36b7af8d5201a	-0.03792938506609307
72	0xbfe02956cfb0b696	-0.5050462776614093
73	0x0000000000000000	0.0
74	0x3fbdf4933652720e	0.11701316906187051
75	0xbfc8e2229796afd7	-0.19440109636104694
76	0xbfb19d394a46af3f	-0.06880529464131956
77	0x3fd542bbc6d5f634	0.33219808976705
78	0x3fa0806186defff5	0.032229469026333314
79	0x3fbc9746a0a6dea1	0.11168328687824182
80	0xbfd4dc7098fc4190	-0.3259545797345931
81	0x3fd58e2c607acd5e	0.3368025724586995
82	0xbfe1967dfa7fef9e	-0.5496206181119196
83	0x3fdc86bbfe34cab0	0.4457235319597812
84	0x3faf6aa529b1cf8d	0.06136051305739363
85	0x3fd92460d7865ffe	0.3928453545318006
86	0x3f7af83e9293f6d6	0.006584400581457669
87	0xbfdd8942dd7863b0	-0.4615027582927338
88	0xbfa7dd720a294de1	-0.04661136983909465
89	0x3fc9cf40703dfc00	0.20163732033321935
90	0xbfd8f4ef7b22ba0f	-0.3899496748444173
91	0x3fe8d38c0a3a6d31	0.7758236121912089
92	0x3fc5e2d956ac5c92	0.17098538143247716
93	0x0000000000000000	0.0
94	0x3f9a5d8722bbd67d	0.025747405524234147
95	0x3f8356369c99fd9a	0.009441782621478368
96	0xbf904d77e8d91173	-0.01592051848116811
97	0x3fb04d74e89086fc	0.06368189504476257
98	0xbfa1575ce2fd94f2	-0.03386965056305681
99	0x3f90bc7c454d7b1a	0.01634401486387125
100	0xbfbde227344c9e6e	-0.11673207308614916
101	0x3fc967687346c6df	0.19846826199277864
102	0x3fd11392bae4661e	0.26681965113820805
103	0xbf7226451c5ab21b	-0.004431028331663113
104	0xbfdee4ddc4ff5ff4	-0.48271888959925424
105	0x0000000000000000	0.0
106	0xbf8b91669c19ffd3	-0.01346092380413203
107	0xbfc56e76010ebea0	-0.1674335007823986
108	0x3f839559ae27fd1f	0.009562206866574883
109	0x3fec471c8a5897ce	0.8836806013175591
110	0xbf8733fbe9b7ea93	-0.011329620428104625
111	0x3fd6ce1468167914	0.35632810749838595
112	0xbfc528333a6652e7	-0.16528930999324773
113	0x3fa351c6b7b178f2	0.03773327820157303
114	0xbfe23a441774afd8	-0.5696125467416051
115	0x3fd873cf2e528983	0.3820684387557309
116	0xbfb93ef5f9f7c907	-0.09861695626003462
117	0x3fe2086bd204757f	0.5635279752638523
118	0xbfa141269b633a3b	-0.03370018622228029
119	0xbfd8fb744af746b7	-0.390347550591382
120	0x3fb367062e67ffab	0.07579077370610203
121	0x3fd35f6500d895f2	0.30269742090817353
122	0xbfde0e179b6c0341	-0.46961012056276635
123	0x3fec28cadd9951e8	0.8799795463660844
124	0x3fdac669cf8961ea	0.41836018817187315
125	0xbf860cfee56ca93f	-0.010766974808195882
126	0xbfbd34c2136b60a5	-0.11408627485377794
127	0x3fb4b37fe2128362	0.08086394566863711
128	0x3fa18ac42f3b1a52	0.03426182819889746
129	0x3fd1d2ee425e3b13	0.2784991882444256
130	0x3fc1a50c3bf68591	0.137849358824536
131	0x3f7f2596c10670cc	0.007604206927137546
132	0xbfadda119783f30c	-0.05830435728601033
133	0x3fcfda0a9f0956ea	0.24884159818127866
134	0x3fc57e08916f40b7	0.16790873624132072
135	0x0000000000000000	0.0
136	0xbfd51aeafab1dc13	-0.3297679374877031
137	0x0000000000000000	0.0
138	0xbfb0c8a8b1eb85f9	-0.06556181281805341
139	0xbfa6d0fc63435c99	-0.04456318580349112
140	0x0000000000000000	0.0
141	0x3fed53bbd2ed4325	0.9164713973678756
142	0xbf28f19e76732211	-0.00019030627593098805
143	0x3fd3dade81538d1f	0.31023371343163036
144	0xbfb9a9e4723c35fb	-0.10024860180802612
145	0xbf8bffbc82aff5f4	-0.01367137216402179
146	0xbfe02e698e7fcc6c	-0.5056655677020792
147	0x3fdabb1557202354	0.4176686621508925
148	0xbfce67dc5270763a	-0.2375445749793686
149	0x3fd523bb2523b661	0.33030584933189827
150	0xbfb6726fa81d5b05	-0.08768365721094191
151	0xbfe1357165de78bd	-0.5377737989072312
152	0x3fc91122f047a1c7	0.19583546383297643
153	0x3fd0dbf908d35461	0.2634260736643395
154	0xbfe21f2c34a800cd	-0.5663052586023923
155	0x3fe9357016fd6dbb	0.787773175146348
156	0x3fd12a7faafa4875	0.26821891495740796
157	0xbf8f33dea18fb333	-0.015235652261219456
158	0xbfa9d540266a3a2d	-0.05045509785587785
159	0x3f8115c58be5b922	0.008342307407215591
160	0xbf798e40b59cd044	-0.006239178439319263
161	0x3fc3484887f2b971	0.15064341199963452
162	0x3fd26949e1c56198	0.2876763062281724
163	0xbfaa7d8b7147b184	-0.0517390800267519
164	0xbfca04196587eae1	-0.20325009782376127
165	0x3fd3079e63a265f8	0.29734000902098456
166	0x3fbb04679d36eb5b	0.10553596103902178
167	0xbf8ba730b9758e3a	-0.013502483997121496
168	0xbfda98089a6ed30c	-0.41552939492548613
169	0x0000000000000000	0.0
170	0x3fc91718ceb43aa4	0.19601736157388416
171	0xbfd3bea85d4f1edb	-0.3085118209096273
172	0xbf94f71b88952f95	-0.020473890506124432
173	0x3fe7fdee8f63a861	0.7497475433895141
174	0xbf7c6b19eb8b9465	-0.006938077211747194
175	0x3fa2dd1e3b0516aa	0.036843247131895865
176	0xbfcb09f8905d4586	-0.21124178933181897
177	0x3faddd072f2d9d03	0.05832693529992563
178	0xbfd38f1b4f3879a8	-0.3056095384253248
179	0x3fe224f6cb9b6da7	0.5670122124387732
180	0x0000000000000000	0.0
181	0x3fe5c0e1e233eb3c	0.679795209696159
182	0xbfb45339b7da1a12	-0.07939491976330995
183	0xbfe902bec25ddfe5	-0.7815851017212451
184	0x3fc49e3a43027ecd	0.16107872268638915
185	0x3fd3350710c70a7f	0.30011154783657185
186	0xbfe6f92919e7190d	-0.7179151063835733
187	0x3fe3610dfb8e5bd1	0.6055974877552847
188	0x3fcb4bb173c0c8b5	0.2132474723053456
189	0x3fa6f8471096ba71	0.044862957739827965
190	0xbfcab3e567066c94	-0.20861499338648015
191	0xbfa0fa8f6e8f3b67	-0.03316162323573373
192	0x0000000000000000	0.0
193	0x3fc0b9a13c99f7ad	0.13066497286848514
194	0x3fce845507c701ea	0.23841345672373332
195	0x3f94c4721fa698fc	0.020280631238755994
196	0xbfd40677b2738737	-0.31289474894412045
197	0xbfa06bb827d868a8	-0.03207183348077197
198	0x3fca8aa2fdf98840	0.2073558559523594
199	0xbfb330779950156b	-0.07495830052365242
200	0xbfcc8d6dbf88da7a	-0.22306606151842684
201	0xbfa8ac41be8c0ddf	-0.048189215192930616
202	0x3fc0297c698d5ab7	0.12626605180658654
203	0xbfd1076cc5d619bd	-0.2660781795497334
204	0xbfc0b6a49cb6e172	-0.1305738225180551
205	0x3fe763876a3748d6	0.730899531796491
206	0x0000000000000000	0.0
207	0x3fca40c961d4595a	0.2051021316226052
208	0xbf8dc5377761fd87	-0.01453631718709293
209	0xbf66b5a68578fdaa	-0.002772164570870668
210	0xbfd3c3bc9615ed1d	-0.3088218179397744
211	0x3feaae839b23f62f	0.8338029890143782
212	0xbfb50c0516440ac6	-0.08221465867613195
213	0x3fe35cbae4556187	0.6050695857657481
214	0xbfc406a3fe5a36a9	-0.15645265502501118
215	0xbfe23d942b066b87	-0.5700169411023673
216	0x3f92a7c4bbf8d6e3	0.01821811101236549
217	0x3fce7744b50da706	0.2380147823380911
218	0xbfe3e2ccabec1301	-0.6214354856352601
219	0x3ff0dcab1e236228	1.053874128081711
220	0x3fd8f1b0f73dffe9	0.3897516645884012
221	0x3f9af9d83d6a01c5	0.026343706844728993
222	0xbfa8f3f116b41b93	-0.04873612787382977
223	0xbfa59a801c87f953	-0.04219436977654092
224	0x0000000000000000	0.0
225	0x3fc18a40ee5b5c18	0.13703166616935003
226	0x3fbbbeb121459f73	0.1083784776907331
227	0x3fae861509bcc5b4	0.05961671584953923
228	0xbfe0b351b26ad100	-0.5218895420753427
229	0x3fa8f740d18c5000	0.04876139219246056
230	0x3fb031729c08eb2c	0.06325451192325876
231	0x0000000000000000	0.0
232	0xbfdb8e0749eda374	-0.43054372996862544
233	0xbf8c11947599a41c	-0.013705406035301286
234	0xbfa30849eacaedd5	-0.03717261305925105
235	0xbfe0fdb1d523baa9	-0.5309685862428825
236	0x3f65004855930a6d	0.0025636112955862906
237	0x3ff042b6f4ed21d3	1.0162877623971454
238	0xbf70b5f0b3f44be0	-0.00407976173962063
239	0x3fdb02650670b3ae	0.42202115658693173
240	0xbfc5fcde0eed68c2	-0.17177940110088313
241	0xbfafe18b4fc10b89	-0.06226764057694029
242	0xbfdf80b1f424c02b	-0.4922299274649073
243	0x3fd1f6eaadc68948	0.28069560022608586
244	0xbf7e6866ea265686	-0.0074237842658441185
245	0x3fd22ea8abf591cb	0.28409783165832597
246	0xbfc804035aa50c1f	-0.1876224701501039
247	0xbfe926b28ca8c866	-0.7859738108875376
248	0x3fbb82bd1a82b880	0.10746366402847407
249	0x3fcd67ff62056816	0.22973625456035113
250	0xbfe1b3ff6ca6c490	-0.5532223817919135
251	0x3feff2c5d3ceda63	0.9983853470683467
252	0x3fd8ffe9e18937c4	0.3906197264194555
253	0x0000000000000000	0.0
254	0xbfbdac135c41aae8	-0.11590691568714429
255	0xbf7c20172224e2e9	-0.00686654125666373
