tcav_data/cavs/eager_disco_16/best_model/concept_1_layer_3_cav.npy (npy, 1152 bytes, 1 tensors)

array f8 [128]
0	0xbff8b7d726062cf6	-1.544882916003926
1	0x3fae4dc165bf0bbe	0.05918697707195218
2	0x0000000000000000	0.0
3	0xbff0e11023ba221e	-1.0549470325078185
4	0x0000000000000000	0.0
5	0x0000000000000000	0.0
6	0xbfe7475faf9f071b	-0.7274626188375096
7	0xbfc4b6d690c5b99e	-0.16182977742159904
8	0xbfdff64e6fc69f61	-0.4994083491860604
9	0x0000000000000000	0.0
10	0xbff556c698a989f4	-1.3336854899758892
11	0xbf7b8a5180277646	-0.0067237075440665425
12	0x0000000000000000	0.0
13	0x3ff5c77fb5cca2ad	1.3612057782685654
14	0x0000000000000000	0.0
15	0x3fc72bce30bdad6b	0.18102433566978546
16	0xbfce10178fde7328	-0.23486609005785763
17	0xbfb2d325d2546545	-0.0735343588352367
18	0xbfa3a6e12aa956dd	-0.03838256498117485
19	0xbf64b031c0dafb2f	-0.002525422262663744
20	0x3fb57ef855314e50	0.08396865920922747
21	0xc007f77249a93117	-2.9958234553106524
22	0x0000000000000000	0.0
23	0x3feddd036873239c	0.9332291641268173
24	0x400076e75c8b81c3	2.0580584745477792
25	0x3fa619ec215b9e17	0.0431665220947332
26	0xbf9a3b7e957a7d04	-0.0256175783857744
27	0x3f9705b122eddf89	0.022482650525006007
28	0x0000000000000000	0.0
29	0xbfd525f0f41fa4a6	-0.3304407485980597
30	0xbfbc5e54a3458a3e	-0.11081437097667732
31	0xbfbdb97bf1955b84	-0.11611151359589483
32	0x0000000000000000	0.0
33	0xbf97085383ee11cb	-0.022492699553838407
34	0x3fe3c65cc8a7ef7c	0.617964164644476
35	0x40031586bf069875	2.3855109142196462
36	0xbff95fa3215bd2f4	-1.5858489325593697
37	0xbfd469e53a5264e1	-0.3189633435773214
38	0xbfe28b1aab00556d	-0.5794804897183617
39	0xbfd5b49cb8609db1	-0.33914869313818047
40	0x0000000000000000	0.0
41	0x0000000000000000	0.0
42	0xbff3ab82924992f9	-1.2293725694991606
43	0xbfdf483b7b8c277b	-0.48878371300872175
44	0x3fe7d260a8660b16	0.7444308556590353
45	0x3facf9ef7b09ad29	0.056594356316816814
46	0xbfb77804c67f5520	-0.0916750893223548
47	0x3fce40fc5c84e65c	0.23635820882354863
48	0x0000000000000000	0.0
49	0xc004e8d97d2ef016	-2.6136960773419657
50	0x0000000000000000	0.0
51	0x0000000000000000	0.0
52	0xbfb9340fdcab0bff	-0.09845065247922945
53	0xbff191c9f073514a	-1.0980929749103603
54	0x0000000000000000	0.0
55	0x0000000000000000	0.0
56	0xbfc7a5d020810828	-0.18474771105872034
57	0x3f5c978b90536e4d	0.0017451155593367796
58	0xbfadc8719586c94c	-0.05816988897585648
59	0x3f742f82d19f206f	0.004928122531005482
60	0x3fe21bd1bd8fe37f	0.5658959104904254
61	0xbff0d73cdeaad523	-1.0525482843343716
62	0x0000000000000000	0.0
63	0xc00aba8a8c898c11	-3.34108457369576
64	0x3ff9b379fa2a8035	1.606317498408328
65	0x3fdac8f7fefb37fd	0.41851615810890036
66	0x3f72ef0472b6b879	0.004622475982087087
67	0xbf78c8c8e84d98ee	-0.006050858301796176
68	0x4003615a22e4f118	2.422535202609776
69	0x3fe007bcbf72c444	0.5009444941735031
70	0xbfe3b5360dfbb03a	-0.6158705018147039
71	0x0000000000000000	0.0
72	0xbf8438a316f2d708	-0.009873651635966776
73	0xbf961fa9d0183870	-0.0216051610241767
74	0xbfe055ff29df6f63	-0.5104976480319973
75	0x0000000000000000	0.0
76	0xbfb579cee6d4682b	-0.08388989577761723
77	0x3fcc6ae4e1f749c0	0.22201214822287163
78	0x3fb4d7cf74ce5ba3	0.08141800500594214
79	0xbfec9b68aea182a0	-0.8939708147773509
80	0x3fdbee5b7740d1e4	0.436423174341398
81	0x3fe3d8f46fb6498b	0.6202337438465276
82	0x0000000000000000	0.0
83	0xbff8db7dbc8d7a1b	-1.5535867085778878
84	0xbfc172036540a19f	-0.13629190868347238
85	0x3f751933d7382718	0.005150988104569064
86	0xbfb7b27d9bd99b3c	-0.09256730132038354
87	0xbfbda311ae834598	-0.11576948652807173
88	0xbfd6b7bfd3ed5e19	-0.3549651689149598
89	0xbfb3d61f6c5c343b	-0.07748600383293162
90	0x3ff4ab9f957af221	1.2919002379486602
91	0x3fc823f41421954b	0.18859721167533858
92	0x3fc178dad4bbe7a6	0.13650069606211196
93	0x3fd95cda2f646103	0.39629225376258165
94	0xbfa7ac63131d2c8c	-0.0462370835144493
95	0x0000000000000000	0.0
96	0x3fdf00648de73667	0.4843989740155394
97	0x3fc0150c1aea18d4	0.12564231218511301
98	0x3fbd793bd3779291	0.11513112938662064
99	0x3ff5b4805a0ece83	1.3565677183040925
100	0xbfb74928a3edf920	-0.09096006395518375
101	0x3fc64eb46aa66ccc	0.17427687842869088
102	0x3fc577913111b4ed	0.16771139999347132
103	0xbfa4ae10dcdff8d9	-0.04039051719881721
104	0xbf3a4986339081ff	-0.00040111090089747775
105	0x0000000000000000	0.0
106	0xbf40b979a09edb81	-0.0005103916057497133
107	0x3fe7a4623c0fe95e	0.7388163731659849
108	0xbff7b7c29c546f6b	-1.4823633295663636
109	0x3fa11604556df609	0.033371100834283914
110	0x4000e1d6a006e369	2.110272646150794
111	0x0000000000000000	0.0
112	0x0000000000000000	0.0
113	0x0000000000000000	0.0
114	0xbff988ef7648fbaa	-1.5959314938079197
115	0x0000000000000000	0.0
116	0x3fd19c590b418f37	0.2751677141115922
117	0x0000000000000000	0.0
118	0xbff58e98a59a7d71	-1.3473135441671185
119	0x0000000000000000	0.0
120	0x3fdb4e4d36b55a70	0.4266541513692692
121	0xbfd7d245fd27f508	-0.37220906946443266
122	0x3fee6a7fac40293c	0.9505003322858907
123	0x3fe5a1f5b1f6bbda	0.6760204768996758
124	0xc000315e6cbf4713	-2.0241058822511007
125	0x3fe18ca8f2d1d403	0.5484204046794051
126	0x3fee25e94a75cc89	0.9421278433132027
127	0x3fba0b2b6831b770	0.10173293393901672
